model/lenet_cifar10_swalp_net.pth (torch_old, 249704 bytes, 10 tensors)

conv1.weight f4 [6, 3, 5, 5]
0	0x3e2aee43	0.16692452
1	0xbf03ffff	-0.51562494
2	0x3e78b67e	0.24288365
3	0x3cd26054	0.025680698
4	0x3f2e9d2a	0.68208563
5	0x3ef958b8	0.487005
6	0x3dc8df0b	0.09808167
7	0xbdd20f38	-0.10256809
8	0xbf8acfd7	-1.0844678
9	0xbe86f864	-0.26361382
10	0x3f39b3f7	0.7254023
11	0xbf7eb175	-0.9948953
12	0xbe8483ce	-0.2588181
13	0xbf5d079d	-0.8633974
14	0x3f07ebba	0.53094065
15	0xbec20f38	-0.37902236
16	0xbf17a4c3	-0.5923578
17	0xbf2511bd	-0.6448019
18	0xbfa432b2	-1.2827971
19	0x3dca237d	0.0987005
20	0x3f2dc83a	0.67883646
21	0x3ea6e41f	0.32595918
22	0x3f00b67d	0.50278455
23	0x3e61958c	0.22029704
24	0x3f1e88df	0.619276
25	0x3e320f38	0.17388618
26	0xbd70cac4	-0.058787122
27	0xbe95dc83	-0.292698
28	0xbf179a9f	-0.5922031
29	0xbe66a745	-0.22524746
30	0xbe6a9d22	-0.22911504
31	0x3ed4c0a5	0.41553226
32	0x3e83f5dd	0.25773516
33	0x3ed40a26	0.41413993
34	0x3e95dc84	0.29269803
35	0xbf884c08	-1.0648203
36	0x3f362381	0.71147925
37	0xbdcb67ec	-0.09931931
38	0x3def3539	0.11680073
39	0xbf1d8146	-0.6152538
40	0x3fa67497	1.300433
41	0xbe94c0a1	-0.29053214
42	0x3f1c288b	0.60999364
43	0x3f13b906	0.577042
44	0x3f0dfaea	0.5546099
45	0xbf741e69	-0.953589
46	0xbe954e91	-0.29161504
47	0xbe9c6f87	-0.3055384
48	0xbf3f0cae	-0.7462872
49	0xbf317721	-0.693224
50	0xbeb29d26	-0.3488552
51	0x3ee49813	0.44647273
52	0x3eaddc84	0.33957303
53	0x3f52d9ff	0.82363886
54	0xbf0eee41	-0.55832297
55	0xbf26195a	-0.64882433
56	0xbe33cd4f	-0.17558788
57	0xbd353a4d	-0.044245053
58	0x3f55be19	0.8349319
59	0x3e7cd4e5	0.24690588
60	0x3e3d4e92	0.18487003
61	0x3ecdf0cf	0.40222785
62	0x3e9f4983	0.31110772
63	0x3f9516ce	1.1647584
64	0xbe098144	-0.13428217
65	0xbf9488df	-1.160427
66	0x3f61771f	0.8807239
67	0x3e5dc83f	0.21658419
68	0x3f6353a3	0.88799495
69	0xbf1f9a99	-0.6234527
70	0x3f1b67ee	0.6070546
71	0x3e04c0a4	0.12964112
72	0xbe57c32b	-0.21070544
73	0x3e52da02	0.20590976
74	0xbeb4d4eb	-0.35318694
75	0xbe10511e	-0.14093444
76	0x3e6faee5	0.2340656
77	0x3f481e6c	0.7817142
78	0xbea81444	-0.3282796
79	0xbf44c09e	-0.7685641
80	0x3f12562c	0.5716274
81	0xbf2bf5da	-0.67172015
82	0xbfd2e932	-1.6477416
83	0x400f9faf	2.2441213
84	0xbeb53a4b	-0.35396037
85	0xbe21e6a5	-0.1581064
86	0x3fa8cac3	1.3186878
87	0xbe6f8653	-0.23391084
88	0xc01b58b9	-2.4272902
89	0x3fa7aee4	1.3100247
90	0xbf3ddc83	-0.741646
91	0x3f1dfaf3	0.61711043
92	0x4003a4c2	2.056931
93	0xbf82f352	-1.0230505
94	0xbea52607	-0.32255575
95	0x3dc7ebb6	0.09761755
96	0x3b181470	0.002320554
97	0xbfa64c0a	-1.2991955
98	0x3f44ac5b	0.76825494
99	0x3ed9d260	0.42543316
100	0xbf4bf5dd	-0.7967203
101	0xbd9cd4e3	-0.076577924
102	0x3f37b908	0.7176671
103	0x3e281448	0.16413987
104	0x3f6cfd76	0.9257425
105	0x3f1f2b1a	0.6217514
106	0xbf8d20f5	-1.1025683
107	0xbf186564	-0.5952971
108	0xbf5e9303	-0.8694307
109	0x3fcc4c0b	1.5960706
110	0x3ddf5dd3	0.109065674
111	0x3f69dc84	0.91352105
112	0xbf253029	-0.6452661
113	0xbfa89303	-1.3169864
114	0x3ef11be3	0.47091588
115	0x3ec446f7	0.38335392
116	0xbf862da1	-1.0482675
117	0x3f95d771	1.1706372
118	0x3e28df11	0.16491343
119	0xbf989300	-1.1919861
120	0x3e76a749	0.24087252
121	0xbe9d4e91	-0.30724004
122	0x3ebf4984	0.37360775
123	0x3f0ce931	0.5504332
124	0xbf716cfe	-0.94306934
125	0xbd8237ce	-0.063583
126	0xbe0e41e6	-0.13892326
127	0xbf111be6	-0.56683195
128	0x3ed81446	0.42202967
129	0xbe0c0a25	-0.13675745
130	0x3d530289	0.05151609
131	0xbdd7c320	-0.10535264
132	0xbf9d2b15	-1.2278773
133	0x3ff33a4a	1.9002163
134	0xbf4dc839	-0.8038364
135	0x3ee5c83d	0.44879332
136	0x3f449816	0.76794565
137	0xbf003cd6	-0.5009283
138	0xbfac1957	-1.3445233
139	0x3f5a6051	0.8530322
140	0x3efa88dc	0.4893254
141	0xbf2e195d	-0.6800745
142	0x3ea1a9d6	0.31574887
143	0xbe1be199	-0.15222777
144	0xbe1720f6	-0.14758667
145	0xbea4fd77	-0.32224628
146	0x3f86a238	1.0518255
147	0x3e99d260	0.30043316
148	0x3e9446f7	0.28960392
149	0xbf0f2b20	-0.5592518
150	0xbe52d9fd	-0.20590968
151	0x3e2e1958	0.17001855
152	0xbf822d9e	-1.0170171
153	0xbed86564	-0.42264855
154	0x3c432b10	0.011912122
155	0xbd14e930	-0.036355197
156	0xbfca83cf	-1.5821475
157	0x3f963cd6	1.1737316
158	0x3f394471	0.7237006
159	0x3e0aee41	0.13567449
160	0xbee353a6	-0.44399756
161	0x3f68c0a0	0.9091892
162	0x3f66bb91	0.90129954
163	0xbec45b3c	-0.38350856
164	0x3b5f0d25	0.0034034934
165	0x3c8cac5d	0.017172033
166	0x3f1e237b	0.6177289
167	0xbeb67eba	-0.3564356
168	0xbde37c3a	-0.11107679
169	0x3d7b907a	0.06141708
170	0x3d8a237b	0.067450486
171	0x3ebb7c2f	0.36618182
172	0xbe4c5b40	-0.19956684
173	0x3da65633	0.0812191
174	0xbe977210	-0.2957921
175	0x3fb9c328	1.4512682
176	0x3ec7353c	0.38907802
177	0xbf9558b5	-1.1667696
178	0x3efbf5df	0.49211022
179	0xbe4d4e94	-0.20049506
180	0x3f0d4e96	0.5519804
181	0xbfc283d1	-1.5196477
182	0xbf2f7c33	-0.6854889
183	0x3f45958c	0.77181315
184	0x3e66f868	0.22555697
185	0xbf8ef863	-1.1169552
186	0xbede0510	-0.43363237
187	0x3fa65b3e	1.2996595
188	0xbe20f354	-0.15717822
189	0xbe7b16d3	-0.24520425
190	0x3f01dc85	0.5072711
191	0x3f90e931	1.1321164
192	0xbf125631	-0.5716277
193	0xbf7158b6	-0.9427599
194	0x3f093a4a	0.5360457
195	0xbee3028b	-0.44337878
196	0xbd316cff	-0.043316837
197	0xbea9d260	-0.33168316
198	0x3e1f8656	0.15578589
199	0x3e12b16d	0.14325495
200	0xbf29446e	-0.6612004
201	0x3f706564	0.9390471
202	0xbe9ad9fa	-0.30244428
203	0xbf383cd7	-0.71967834
204	0x3e7f0ca6	0.24907169
205	0x3f6cdf0b	0.92527837
206	0xbffb028a	-1.961015
207	0x3ea78658	0.32719684
208	0x3f006561	0.5015469
209	0x3e183cd2	0.14866951
210	0xbf8cda00	-1.1004028
211	0x3efe1958	0.4962871
212	0x3f945b3a	1.159034
213	0xbef57724	-0.4794246
214	0xbe46cfd9	-0.19415225
215	0xbeda88dc	-0.4268254
216	0x3e7f5dc0	0.24938107
217	0x3e3cfd79	0.18456067
218	0x3f1b353b	0.606281
219	0xbea432b2	-0.32069927
220	0x3f42d9f9	0.7611385
221	0x3e0079a9	0.1254641
222	0xbede41e8	-0.43409657
223	0x3e64c09f	0.22339104
224	0xbe940a20	-0.28913975
225	0xbf475dc7	-0.7787747
226	0x3f813a4b	1.0095915
227	0xbe71be1d	-0.23607679
228	0xbd66a749	-0.05631188
229	0x3ea0a236	0.31373757
230	0x3f22d9fb	0.6361386
231	0xbf0d9fb0	-0.5532179
232	0x4001ebbb	2.0300128
233	0xbfc3720e	-1.5269182
234	0xbf2e41e6	-0.68069303
235	0xbfb91be1	-1.4461633
236	0xbeecac5d	-0.46225253
237	0x3f3b53a3	0.73174495
238	0x3f8637c2	1.0485766
239	0x3f1c32b6	0.6101488
240	0xbf083cd6	-0.5321783
241	0x3fd70288	1.6797647
242	0xbf645b3e	-0.89201725
243	0x3f63a4bf	0.8892326
244	0xc01b7c33	-2.4294555
245	0xbf16562f	-0.58725256
246	0x401c46f7	2.4418314
247	0xc0857721	-4.170792
248	0x4042cfd7	3.0439355
249	0xbe81be19	-0.25340346
250	0xbe5c83cf	-0.21534656
251	0xbf8dd25e	-1.1079824
252	0x3f00511c	0.50123763
253	0xbe97c329	-0.29641083
254	0x3f1b67ec	0.6070545
255	0x3f9a2da0	1.2045174

conv1.bias f4 [6]
0	0x3eeb7c33	0.45993194
1	0xbfb07499	-1.3785583
2	0xbf760a25	-0.9610923
3	0xbf89e6aa	-1.0773518
4	0xbf319588	-0.6936879
5	0xbfb711bc	-1.4302287

conv2.weight f4 [16, 6, 5, 5]
0	0xbf473a49	-0.7782331
1	0x3eb69d27	0.35666773
2	0x3e13a4c2	0.14418319
3	0x3de3cd4c	0.11123142
4	0xbd6e41e7	-0.058168318
5	0xbf227eb9	-0.63474613
6	0xbf689814	-0.9085705
7	0xbd3be194	-0.045869425
8	0x3e108df0	0.14116645
9	0x3f27c32d	0.6553219
10	0xbf5ecac8	-0.8702817
11	0xbf7fc32b	-0.9990718
12	0xbe881444	-0.2657796
13	0x3f2ff0cd	0.6872681
14	0x3de93029	0.11386139
15	0xbe645b3f	-0.22300433
16	0xbf5df5dc	-0.86703277
17	0x3e840a24	0.25788987
18	0x3e2d11c2	0.16901305
19	0x3e3d8b6a	0.18510213
20	0xbed5dc85	-0.41769806
21	0xbf0e0a27	-0.5548424
22	0xbe975dc8	-0.29563737
23	0x3e6fc32a	0.23414293
24	0xbd9958b9	-0.07487626
25	0x3dd4c09f	0.10388302
26	0x3d126058	0.03573641
27	0x3f08655e	0.53279674
28	0x3ef846f0	0.4849162
29	0x3ed7f5dc	0.42179763
30	0x3eef4981	0.46735767
31	0x3e03028c	0.1279394
32	0x3f17a9d3	0.59243506
33	0x3f0a1e69	0.5395265
34	0x3ea0d4e7	0.31412432
35	0xbe8a41e5	-0.270034
36	0x3eef20ed	0.46704808
37	0x3ec162db	0.37770733
38	0x3e2aee42	0.1669245
39	0xbefa6a77	-0.4890935
40	0x3f009815	0.5023206
41	0xbafd775f	-0.0019337944
42	0xbe11958a	-0.14217201
43	0xbf0a79ac	-0.54091907
44	0xbe5b028b	-0.21387689
45	0xbe921959	-0.28534964
46	0xbe19e6a6	-0.15029392
47	0xbea3cd4e	-0.31992573
48	0xbbfaee42	-0.007657797
49	0xbe1f5dc7	-0.15563117
50	0xbe79958a	-0.24373451
51	0x3d2a749a	0.041615106
52	0xbe29446e	-0.1653001
53	0xbe9e37c4	-0.3090192
54	0xbeb72b1b	-0.35775074
55	0xbea89816	-0.32928532
56	0xbe1bf5db	-0.15230505
57	0xbdacfd77	-0.08446782
58	0xbeb98142	-0.36231428
59	0xbe0c83cc	-0.13722152
60	0x3e175dc8	0.14781868
61	0x3d0d9fb0	0.034576118
62	0xbc5b3f5e	-0.013381807
63	0x3d849818	0.06474322
64	0x3e1367ed	0.14395113
65	0xbcbc32b3	-0.022973394
66	0x3ce4c09d	0.027923876
67	0x3eb6bb8e	0.35689968
68	0x3e3e0510	0.18556619
69	0x3f2b67eb	0.6695544
70	0xbd405119	-0.04695234
71	0x3e4d62d9	0.20057239
72	0x3e5b028a	0.21387687
73	0x3f07d76f	0.530631
74	0x3dc5dc7e	0.09661196
75	0xbeb046fa	-0.3442915
76	0xbe8cac5b	-0.27475247
77	0xbeab720f	-0.33485457
78	0xbdfe9305	-0.124303855
79	0xbead4e90	-0.33849
80	0xbe069305	-0.13142021
81	0xbe310799	-0.17288055
82	0xbd9e41e9	-0.07727415
83	0xbe926052	-0.28589112
84	0x3dc2b16d	0.095064975
85	0xbdfd9fb1	-0.12383974
86	0xbea3fffe	-0.32031244
87	0xbe391be1	-0.18077041
88	0x3ea6bb8f	0.3256497
89	0x3c260506	0.010133034
90	0xbd911be1	-0.070853956
91	0xbe032b18	-0.12809408
92	0x3e290799	0.16506805
93	0xbe161957	-0.14658104
94	0x3db88df1	0.09011448
95	0xbb93028a	-0.0044863867
96	0x3e3f0caf	0.18657182
97	0x3dd958b6	0.106126234
98	0x3e3316d4	0.17489177
99	0xbe388df3	-0.180229
100	0xbf4cf355	-0.80058795
101	0xbd2bb909	-0.04192451
102	0x3e51faf2	0.20505884
103	0xbb59faf6	-0.0033261157
104	0x3eb61954	0.355662
105	0xbeb8df10	-0.36107683
106	0xbf03720f	-0.51345915
107	0xbdc2b16d	-0.095064975
108	0x3edee41b	0.43533406
109	0x3e5b67e8	0.21426356
110	0xbea52608	-0.32255578
111	0xbe8f907a	-0.28039914
112	0xbe6bcd4c	-0.23027533
113	0xbe0ab171	-0.13544251
114	0x3e75c83e	0.24002168
115	0x3dd958b5	0.10612623
116	0xbe1353a7	-0.1438738
117	0xbc6bb908	-0.014387377
118	0xbe6879a8	-0.22702658
119	0x3ebbffff	0.36718747
120	0xbf0846f7	-0.53233284
121	0xbeb69306	-0.35659045
122	0xbc85b3f3	-0.016321158
123	0x3e50b67f	0.20382117
124	0xbd6e41e3	-0.058168303
125	0x3d358b68	0.0443224
126	0xbd5f0cac	-0.054455444
127	0x3dc90797	0.09815901
128	0xbdef0caf	-0.11672341
129	0xbe4562d5	-0.19275983
130	0xbd260511	-0.040532175
131	0xbd73f5dc	-0.05956064
132	0x3ddb67ec	0.10713181
133	0x3d120f34	0.03565903
134	0xbe68a237	-0.2271813
135	0xbe2958bb	-0.16537754
136	0x3e9c6f85	0.30553833
137	0x3d8562da	0.06512995
138	0x3e4a4c06	0.19755563
139	0xbe99958a	-0.29996902
140	0x3db7c325	0.08972768
141	0xbd998146	-0.0749536
142	0x3eb0df11	0.34545186
143	0xbe4faee5	-0.2028156
144	0x3cfe1959	0.031017946
145	0xbd1f0cb0	-0.03883046
146	0x3e26562d	0.16243811
147	0xbda7720f	-0.08176052
148	0x3e2ba4c3	0.1676207
149	0xbef0d4e8	-0.47037435
150	0x3eee2891	0.46515325
151	0x3e0367ed	0.12832613
152	0x3e869816	0.26287907
153	0x3e7c144d	0.24617119
154	0x3eb86a73	0.36018714
155	0xbe68df0f	-0.2274134
156	0x3e760f3a	0.24029246
157	0xbe20b67f	-0.15694617
158	0xbd7b907f	-0.0614171
159	0x3da08dee	0.07839571
160	0xbc130285	-0.008972769
161	0xbe3d958d	-0.1851408
162	0x3e013a49	0.1261989
163	0xbc219591	-0.00986232
164	0x3e4ecfd9	0.20196475
165	0xbda4d4e3	-0.080484174
166	0xbda24c0b	-0.0792466
167	0x3dcdf0ca	0.100556925
168	0xbe66562e	-0.22493812
169	0xbe0a9300	-0.13532639
170	0xbe826050	-0.25464106
171	0xbdb96cf7	-0.090539865
172	0x3c11be16	0.008895418
173	0xbd783cd7	-0.060604896
174	0xbe0d3a50	-0.13791776
175	0xbc99a9d3	-0.018757736
176	0xbd85771e	-0.065168604
177	0xbd086561	-0.033299807
178	0xbd2b16cb	-0.041769784
179	0x3e19faec	0.15037125
180	0xbd52b16c	-0.051438734
181	0xbe0d1be3	-0.13780169
182	0x3ce0a237	0.0274211
183	0xbe16d9f7	-0.14731584
184	0x3e2288df	0.15872525
185	0x3cfa4c0c	0.03055384
186	0xbe0acfd6	-0.13555846
187	0xbd39302a	-0.04521195
188	0xbd22b16c	-0.039719984
189	0x3dae41e7	0.085086636
190	0xbd5d2609	-0.05399135
191	0xbb3e194f	-0.0029006784
192	0xbbf49814	-0.007464418
193	0xbd837c30	-0.06420171
194	0x3d379a9d	0.044825185
195	0x3e179079	0.14801206
196	0x3d8cc0a1	0.068726785
197	0xbd3562dd	-0.044283736
198	0xbc41e6a9	-0.011834779
199	0x394ac652	0.00019338101
200	0x3e005b41	0.1253481
201	0x3d2faee5	0.0428914
202	0xbdee6a71	-0.11641396
203	0xbdc4e930	-0.096147895
204	0xbd9ebb8e	-0.07750617
205	0x3e122da2	0.1427522
206	0x3d03f5dc	0.03221689
207	0xbd5cfd78	-0.053952664
208	0xbe1162da	-0.14197865
209	0xbe1cfd78	-0.15331066
210	0x3e4ea74b	0.20181005
211	0xbdc18145	-0.09448484
212	0xbd0aee42	-0.033918627
213	0xbdc6f866	-0.09715347
214	0x3d87ebb9	0.066367574
215	0x3df57721	0.11985613
216	0x3d12d9f3	0.035852384
217	0x3d9511bc	0.07278773
218	0xbd996d00	-0.07491493
219	0x3d93028b	0.071782194
220	0x3d4bb904	0.04973699
221	0xbb0b67da	-0.0021271617
222	0x3cf079ab	0.02935489
223	0x3d09079b	0.03345452
224	0x3d88a237	0.06671565
225	0xbdaf8653	-0.08570542
226	0xbd698145	-0.057008047
227	0xbd8d3a4e	-0.06895886
228	0x3c19faf3	0.00939821
229	0xbe393a4d	-0.18088646
230	0xbd116cfd	-0.03550433
231	0x3d90f356	0.07077663
232	0x3d30a23a	0.04312346
233	0xbbebb900	-0.0071936846
234	0xbcd7c32b	-0.02633818
235	0x3d026052	0.03183014
236	0x3dc3b906	0.09556775
237	0x3dd1d25f	0.10245203
238	0x3e21f0cc	0.15814513
239	0xbd33a4c0	-0.04385829
240	0x3d858b68	0.0652073
241	0x3e340004	0.17578131
242	0x3e86cfd8	0.26330447
243	0x3e34511c	0.17609066
244	0x3d9c46f7	0.07630723
245	0xbcc5b3f2	-0.024133656
246	0xbd4c5b41	-0.049891714
247	0x3e0367ed	0.12832613
248	0x3dd1d261	0.10245205
249	0x3d96195c	0.07329056
250	0xbe418b69	-0.18900837
251	0x3e313027	0.17303525
252	0x3dacac5c	0.084313124
253	0x3e18c0a5	0.14917238
254	0x3e252602	0.1612778
255	0xbe021957	-0.12704979

conv2.bias f4 [16]
0	0x4004c5b7	2.0745676
1	0xc0985dca	-4.761449
2	0x3ef511bb	0.4786509
3	0xbfd79a9d	-1.6844059
4	0xbf169303	-0.5881807
5	0x402e288c	2.7212248
6	0x40b57ebb	5.67172
7	0xbfbf53a3	-1.4947399
8	0x3cfd7712	0.030940566
9	0x3f59958e	0.8499383
10	0x40158144	2.3360147
11	0x3e9c0a27	0.30476496
12	0x3f558b68	0.8341584
13	0x3ff6050f	1.9220294
14	0xc00d1be2	-2.2048268
15	0xbf4faee3	-0.8112623

fc1.weight f4 [120, 400]
0	0xbdc2ee42	-0.095181
1	0x3e2c83ce	0.16847154
2	0xbcc1e6a7	-0.023669554
3	0xbeaacac4	-0.33357823
4	0xbee6c0a1	-0.4506884
5	0xbd9e41e6	-0.07727413
6	0xbd993025	-0.07479886
7	0x3b81446d	0.0039449246
8	0xbe47ebb8	-0.19523513
9	0xbe9bdc86	-0.30441684
10	0xbe581e68	-0.21105349
11	0xbe291bdf	-0.16514538
12	0x3c2d9faf	0.010597154
13	0xbe069303	-0.13142018
14	0xbe59771e	-0.21236846
15	0x3d214471	0.03937191
16	0x3ca8df0e	0.020614173
17	0xbe711be0	-0.2354579
18	0xbd046f8a	-0.032332934
19	0x3d9079ab	0.07054456
20	0xbd8c32b0	-0.068456054
21	0xbe2b028c	-0.1670019
22	0xbda58b67	-0.080832295
23	0xbc8d4e95	-0.017249385
24	0xbd5e9307	-0.054339435
25	0xbd8d4e94	-0.06899753
26	0x3e9b2605	0.30302444
27	0x3e0d8b67	0.13822709
28	0x3e7de6a5	0.24795015
29	0x3eb2f354	0.3495127
30	0x3d741e6a	0.059599318
31	0x3d7446f9	0.059637997
32	0x3e7162dc	0.23572868
33	0x3d3ac5b2	0.045598693
34	0x3e7ccac5	0.24686725
35	0x3d9a9d23	0.07549503
36	0xbcadf0cc	-0.021232985
37	0xbc90288f	-0.017597465
38	0x3dea604f	0.11444151
39	0x3d9d771f	0.07688736
40	0xbdc29d23	-0.09502628
41	0xbe0e37c3	-0.13888459
42	0xbd0d4e91	-0.034498755
43	0xbd833f5e	-0.06408571
44	0xbe8b1be2	-0.2716971
45	0xbe8d9a9b	-0.27657017
46	0x3de66a78	0.11250776
47	0x3eda2891	0.42609075
48	0x3b8288df	0.0039836015
49	0xbe2241e9	-0.15845455
50	0x3e1ea749	0.15493502
51	0x3d40511e	0.04695236
52	0xbd316cfd	-0.04331683
53	0xbc581444	-0.013188425
54	0xbeb4a23c	-0.35280025
55	0xbdbba4bd	-0.09162281
56	0xbd6511c0	-0.05592513
57	0x3dff20f3	0.124574564
58	0xbd6faedc	-0.05851637
59	0x3d933f5f	0.071898215
60	0xbd5faee6	-0.054610156
61	0x3c95dc86	0.01829363
62	0xbcd7720f	-0.026299505
63	0xbca65626	-0.02030475
64	0x3d330286	0.04370358
65	0x3e4e562d	0.20150061
66	0xbc87ebb9	-0.016591894
67	0x3d6f5dcc	0.05843906
68	0x3e51be1b	0.20482676
69	0x3e4acfd6	0.19805846
70	0xbd381444	-0.0449412
71	0xbd5fffff	-0.054687496
72	0xbe539079	-0.2066058
73	0xbdd2b16c	-0.10287747
74	0xbe34b67c	-0.17647737
75	0xbe908ded	-0.2823328
76	0xbe27e196	-0.16394648
77	0x39df0ce7	0.00042543488
78	0x3be562d9	0.007000309
79	0xbe0ba4c1	-0.13637067
80	0x3e188df1	0.14897896
81	0xbe1a41e8	-0.15064204
82	0x3d5720f5	0.052521665
83	0x3e5d6cff	0.2162361
84	0xbe253029	-0.16131653
85	0x3d8237c5	0.063582934
86	0x3da59fad	0.08087096
87	0xbd87ebb7	-0.06636756
88	0xbce288dc	-0.02765315
89	0xbe6c32b3	-0.23066215
90	0x3e44c0a3	0.1921411
91	0xbd0cac5b	-0.03434406
92	0x3e4d62d8	0.20057237
93	0x3e33e196	0.17566523
94	0x3d5fd76e	0.05464881
95	0x3e1e9d26	0.15489635
96	0xbdbfaee5	-0.0935953
97	0xbd7dc83b	-0.061958533
98	0x3db4ac5b	0.08821937
99	0xbcfe6a75	-0.031056622
100	0x3d858b68	0.0652073
101	0x3e2dc83d	0.16970916
102	0x3e6f16c9	0.23348536
103	0x3d893029	0.06698639
104	0x3e0ccac5	0.13749225
105	0xbd088df7	-0.033338513
106	0xbd060511	-0.032719675
107	0xbb2ee425	-0.0026686278
108	0x3e058b68	0.1304146
109	0xbde13028	-0.10995513
110	0xbc88df09	-0.016707914
111	0xbc619587	-0.01376856
112	0x3d90cac5	0.07069925
113	0xbc1d2604	-0.009591583
114	0x3df26051	0.11834777
115	0xbe5832ad	-0.21113081
116	0x3d8f9a9e	0.07011913
117	0xbe5abb8e	-0.21360609
118	0xbc9e6a72	-0.019337866
119	0xbd00f351	-0.031482045
120	0x3e8e3cd5	0.27780786
121	0x3d8febba	0.07027383
122	0x3e5753a5	0.21028002
123	0x3e58a23a	0.21155635
124	0x3ec0ac5b	0.37631497
125	0x3deebb90	0.116568685
126	0xbdb7c32a	-0.089727715
127	0xbe0e1959	-0.13876857
128	0x3b7fffff	0.0039062498
129	0x3e98ac5f	0.2981901
130	0xbe029303	-0.12751393
131	0xbe7d1be0	-0.24717665
132	0xbe481448	-0.19538987
133	0xbea6b16d	-0.3255724
134	0xbc30288f	-0.010751857
135	0x3d8d4e92	0.06899752
136	0xbd9be193	-0.07611384
137	0xbdd0288b	-0.10163983
138	0xbdbebb8e	-0.09313117
139	0xbdfa4c09	-0.12221534
140	0x3e1cc0a3	0.1530786
141	0x3cac0a23	0.021000927
142	0xbe0d62da	-0.1380724
143	0xbe394472	-0.18092516
144	0x3d9a9d25	0.07549504
145	0x3e17720e	0.14789602
146	0x3dd32b19	0.103109546
147	0xbd8d2606	-0.06892018
148	0x3b2ee406	0.0026686206
149	0x3d45dc84	0.048306003
150	0xbdcc83ce	-0.09986077
151	0xbdde6a6f	-0.10860144
152	0x3c8cfd78	0.017210707
153	0xbdc2ee46	-0.09518103
154	0xbe405b41	-0.1878481
155	0xbd583cd5	-0.05279239
156	0x3ccac5b2	0.024752472
157	0x3df6cfd5	0.120513596
158	0xbd26f866	-0.040764235
159	0xbe60b67f	-0.21944617
160	0x3d288df3	0.041151
161	0x3d43a4c2	0.047764547
162	0x3e400a24	0.18753868
163	0x3d59079a	0.052985765
164	0x3dd0511c	0.101717204
165	0x3d6cd4e5	0.05782022
166	0xbca237c3	-0.01980198
167	0x3db0cac7	0.08632427
168	0xbdd483cd	-0.103767015
169	0xbd8a237c	-0.06745049
170	0x3e5d6d00	0.21623611
171	0xbd265632	-0.040609546
172	0x3c86562d	0.016398514
173	0x3d3aee45	0.045637388
174	0x3e262d9d	0.16228338
175	0x3e5f53a5	0.21809252
176	0x3dfe195a	0.12407179
177	0x3e664c08	0.22489941
178	0x3e12d9fb	0.14340965
179	0x3d84e935	0.06489793
180	0x3dab16d1	0.08353961
181	0xbe0c79ac	-0.13718289
182	0x3d9958b7	0.07487624
183	0xbca19589	-0.019724624
184	0x3d920f37	0.07131808
185	0xbd983cd2	-0.074334756
186	0x3d1e41e9	0.038637076
187	0xbe00b681	-0.1256962
188	0xbd3ac5b4	-0.0455987
189	0xbe6e9305	-0.23298271
190	0xbd3d4e8f	-0.046217497
191	0xbe94e41e	-0.2908029
192	0xbd5fffff	-0.054687496
193	0xbd11be17	-0.035581674
194	0xbb483cd0	-0.0030553825
195	0xbdbbb90e	-0.09166156
196	0xbe13d770	-0.14437652
197	0xbc8562d8	-0.016282484
198	0xbd1237c1	-0.035697702
199	0x3ccee41f	0.025255261
200	0x3bd3a4cf	0.0064588557
201	0x3e006563	0.12538676
202	0x3e3562db	0.17713492
203	0x3d179a9d	0.037012685
204	0xbd0d9fae	-0.03457611
205	0xbdb2237a	-0.08698173
206	0x3d86bb91	0.06578744
207	0x3e15d262	0.14631036
208	0x3e3a0516	0.18166003
209	0xbdc93027	-0.098236375
210	0x3c8bb908	0.017056003
211	0x3e0316d2	0.12801674
212	0x3e456cff	0.1927986
213	0x3bfebb8e	0.007773823
214	0xbe7a37c7	-0.2443534
215	0xbccd4e92	-0.02506188
216	0x3e020f35	0.12701114
217	0x3d10511c	0.035233602
218	0xbb88df0d	-0.0041769804
219	0x3dd66a75	0.10469524
220	0x3bb907a0	0.005646661
221	0x3e57a4c3	0.21058945
222	0x3c1079a2	0.008818062
223	0xbe2911c0	-0.16510677
224	0x3e020511	0.12697245
225	0x3de562da	0.11200495
226	0xbdc69301	-0.096960075
227	0xbdc26052	-0.09491028
228	0xbd0446f8	-0.032294244
229	0x3de14471	0.10999382
230	0x3cda4c00	0.026647568
231	0xbc86f865	-0.016475866
232	0x3df27497	0.11838644
233	0xba03cd7c	-0.0005027873
234	0xbd6a4c05	-0.057201404
235	0xbe408dee	-0.18804142
236	0xbcba9d29	-0.022780018
237	0xbda0f354	-0.07858911
238	0x3d80df0d	0.062925436
239	0xbddab16f	-0.10678374
240	0xbe129304	-0.14313895
241	0xbe5b8658	-0.21437967
242	0xbe810289	-0.25197247
243	0xbddf720f	-0.10910427
244	0xbe24d4e9	-0.16096844
245	0xbe5688df	-0.2095065
246	0xbc8b67ec	-0.017017327
247	0x3cd8b67e	0.026454207
248	0xbd99958c	-0.07499227
249	0x3cc60511	0.024172338
250	0xbdaee41c	-0.08539602
251	0xbbaee41e	-0.0053372523
252	0xbd60a238	-0.054842204
253	0xbd08b680	-0.03337717
254	0xbd0c5b3f	-0.034266707
255	0xbd40511d	-0.046952356

fc1.bias f4 [120]
0	0xbe5e9d29	-0.2173964
1	0x3e148def	0.14507268
2	0x3e1cf356	0.153272
3	0x3d37720c	0.044786498
4	0x3d40f354	0.047107056
5	0x3d46f866	0.048576735
6	0x3cd958b5	0.026531557
7	0xbe1e0f39	-0.15435494
8	0x3ec7e6a6	0.39043158
9	0x3d383cd6	0.044979893
10	0xbd76f864	-0.060295478
11	0x3e9e0a28	0.30867124
12	0x3e9dfaee	0.30855507
13	0xbe16a74b	-0.14712255
14	0x3eacc0a1	0.33740714
15	0x3d293026	0.041305684
16	0xbe6e237b	-0.23255722
17	0xbdd316d0	-0.103070855
18	0x3da6cfd9	0.081451125
19	0x3e94b67c	0.29045475
20	0x3e8e41e8	0.27784657
21	0xbcfa9d23	-0.030592507
22	0xbe7d8b69	-0.24760212
23	0x3ed7958e	0.4210629
24	0x3d8511bf	0.064975254
25	0x3dd2237f	0.102606766
26	0xbe0641e4	-0.13111073
27	0xbd8d3a4c	-0.06895885
28	0x3e3911bb	0.1807317
29	0x3ecbffff	0.39843747
30	0xbe7d9fb4	-0.24767953
31	0x3d99faee	0.07518564
32	0xbd0cfd78	-0.034421414
33	0x3d737c33	0.059444617
34	0x3e890cb0	0.26767492
35	0xbef0b16d	-0.47010365
36	0x3e84d4e7	0.25943682
37	0x3e809d26	0.25119895
38	0x3e060f3b	0.13091747
39	0xbe50fd71	-0.2040918
40	0x3e7c1e6a	0.24620977
41	0x3e8ecac3	0.2788907
42	0x3e1316d0	0.14364171
43	0xbd911be1	-0.070853956
44	0x3ea53027	0.322633
45	0xbe391be0	-0.1807704
46	0x3d88511b	0.06656095
47	0xbe84cfd9	-0.25939825
48	0xbdd7ebbb	-0.10543009
49	0x3e97be17	0.29637215
50	0xbe554470	-0.20826888
51	0x3d92b16d	0.071627475
52	0x3e343cd3	0.17601328
53	0x3e43c32b	0.1911742
54	0x3eaaa745	0.33330742
55	0xbd99d264	-0.07510832
56	0xbe08c0a3	-0.13354735
57	0x3d22b16b	0.03971998
58	0xbe4288dd	-0.18997522
59	0x3e03a4c2	0.12855819
60	0xbdac0a27	-0.08400374
61	0xbea62891	-0.32452825
62	0xbd8f5dca	-0.07000311
63	0x3eb641e5	0.3559715
64	0x3d4720f1	0.0486154
65	0x3ebe0515	0.37113252
66	0x3e826a78	0.25471854
67	0xbe78e931	-0.24307705
68	0x3ead7212	0.3387609
69	0xbd8e0513	-0.069345616
70	0xbe98f34e	-0.29873127
71	0x3d20a238	0.039217204
72	0xbeaa562c	-0.3326887
73	0x3c688dee	0.014193995
74	0xbe340a24	-0.17581993
75	0x3e1bd776	0.1521891
76	0x3d84c0a6	0.06482057
77	0x3db4c0a0	0.08825803
78	0xbe241e6b	-0.16027229
79	0xbc860513	-0.016359841
80	0x3e4f539f	0.20246743
81	0x3e4abb8f	0.1979811
82	0x3c4b67ee	0.0124149155
83	0xbdc879a8	-0.09788829
84	0xbc51be1c	-0.012801673
85	0xbdb9a9d2	-0.09065594
86	0xbdec6f85	-0.11544708
87	0xbdde195b	-0.1084468
88	0x3d832b17	0.06404703
89	0xbdcfaee3	-0.10140779
90	0x3e9232ae	0.2855429
91	0x3e501e69	0.203241
92	0xbe246563	-0.16054301
93	0x3f080f37	0.53148216
94	0xbd5288dc	-0.05140005
95	0x3ec89d28	0.391824
96	0x3e7d6cf9	0.24748601
97	0xbd326051	-0.043548886
98	0xbe9ebb91	-0.31002477
99	0x3db65630	0.08903158
100	0xbd90511a	-0.07046719
101	0xbe6ac5b6	-0.22926983
102	0x3db01448	0.08597618
103	0x3e473538	0.19453895
104	0xbe54d4eb	-0.20784347
105	0x3d4562dc	0.048189983
106	0xbd927497	-0.07151144
107	0xbe21302f	-0.15741037
108	0x3ca9d25a	0.020730186
109	0xbef5ebbc	-0.48031414
110	0x3e51d25f	0.20490406
111	0x3d94c0a2	0.07263304
112	0xbe01e6a7	-0.12685643
113	0x3ed9f5e1	0.42570403
114	0x3df1814b	0.11792239
115	0xbea446f7	-0.32085392
116	0xbdb45b40	-0.08806467
117	0xbe5d771d	-0.2162747
118	0x3e3753a7	0.17903005
119	0x3eb63cd2	0.35593277

fc2.weight f4 [84, 120]
0	0xbd1a7499	-0.037708852
1	0x3dbaee45	0.091274776
2	0x3dc1e6a4	0.09467819
3	0xbd9a562c	-0.07535967
4	0xbce1e6a4	-0.027575798
5	0xbbabb904	-0.0052405614
6	0x3e05cd4e	0.13066599
7	0x3d26f864	0.040764228
8	0x3e114981	0.14188196
9	0xbc9ebb91	-0.019376548
10	0xbd4237c3	-0.04741646
11	0x3e0716cf	0.13192295
12	0x3c2df0c8	0.010616489
13	0xbd260515	-0.04053219
14	0x3dbee41b	0.093208514
15	0xbd0e2da0	-0.03471148
16	0xbd273538	-0.040822238
17	0xbde9dc84	-0.11419013
18	0xbde40001	-0.11132813
19	0x3b1446f4	0.00226253
20	0xbce079ac	-0.027401768
21	0x3b1be18a	0.0023785555
22	0x3dcecfd3	0.10098233
23	0x3db446f9	0.088025995
24	0x3cb0a237	0.021561725
25	0xbd652602	-0.05594445
26	0xbe911449	-0.2833579
27	0x3bbc32af	0.0057433466
28	0x3d830cad	0.06398902
29	0x3c711be4	0.014716122
30	0xbdcfebba	-0.10152383
31	0xbdf01443	-0.117226146
32	0xbe032604	-0.1280747
33	0x3dfe2381	0.124091156
34	0x3d70cad0	0.058787167
35	0xbd5c5b3f	-0.053797957
36	0xbd6367e9	-0.05551902
37	0x3d69e6a7	0.057104733
38	0x3d90ac5c	0.07064125
39	0xbc95b3fb	-0.018274298
40	0xbd1fc331	-0.03900451
41	0x3da61958	0.08110303
42	0x3d2d8b66	0.04236927
43	0xbacd4e8e	-0.001566367
44	0x3bb3f5df	0.0054919566
45	0xbdc2bb8b	-0.09508427
46	0xbe17f0cd	-0.14837952
47	0xbd133f5e	-0.035949104
48	0xbcf88df1	-0.03034112
49	0xbc981448	-0.018564358
50	0x3d6ac5b3	0.057317447
51	0x3de49815	0.1116182
52	0x3e54c0a0	0.20776606
53	0x3d8a6a77	0.06758588
54	0xbcd9faef	-0.026608912
55	0xbc320f33	-0.010867882
56	0xbdcfe196	-0.10150449
57	0x3cd00002	0.025390629
58	0x3d124c0b	0.03571705
59	0xbd8d4470	-0.06897819
60	0xbdc9e6a8	-0.09858447
61	0xbd3288e1	-0.04358757
62	0xbd52c5b4	-0.051458076
63	0xbbfb907b	-0.0076771355
64	0xbda0fd74	-0.07860842
65	0xbbb8656c	-0.005627325
66	0x3c7b907a	0.01535427
67	0xbc288df4	-0.0102877505
68	0x39cac5ab	0.00038675716
69	0xbcea237c	-0.028581373
70	0xbdab3f5a	-0.08361693
71	0xbc92b16c	-0.017906867
72	0xbddc511c	-0.10757658
73	0xbd603cdd	-0.054745544
74	0xbd1e562f	-0.03865641
75	0xbcb8b683	-0.022547966
76	0x3e26288b	0.16226403
77	0x3d07d775	0.03316446
78	0xbde16cfe	-0.11007117
79	0xbce37c30	-0.027769178
80	0xbe498146	-0.1967822
81	0xbc083cd5	-0.008315285
82	0xbd8d079b	-0.06886216
83	0x3d0cd4ea	0.03438274
84	0x3cbd7722	0.023128096
85	0x3e5ccac6	0.21561727
86	0xbd4288dc	-0.0474938
87	0xbe0b20f1	-0.13586785
88	0xbd4e9307	-0.050433185
89	0xbd9d1be4	-0.07671335
90	0x3d63cd51	0.055615727
91	0xbbc6f868	-0.006072093
92	0x3be0f352	0.0068649435
93	0x3c698143	0.01425201
94	0x3dc20f33	0.09475555
95	0x3d5b67ea	0.053565897
96	0x3ccc5b3f	0.024945853
97	0xbd84a238	-0.06476253
98	0xbd3b3f5d	-0.045714725
99	0x3e2b0289	0.16700186
100	0xbdcbcd51	-0.0995127
101	0xbd6d62da	-0.0579556
102	0xbd314472	-0.043278165
103	0xbdcbe192	-0.099551335
104	0xbdfee41c	-0.12445852
105	0x3ac0a240	0.0014696792
106	0x3cce195f	0.025158582
107	0xbc9511bd	-0.018196935
108	0x3af5dc85	0.0018757737
109	0xbd7c5b39	-0.061610434
110	0xbc558b6b	-0.013033728
111	0x3abe1960	0.0014503412
112	0xbd09e6a6	-0.03366723
113	0xbae19577	-0.0017210682
114	0x3e3958b8	0.1810025
115	0xbce562dc	-0.028001241
116	0x3dd78656	0.105236694
117	0xbe12fd77	-0.14354502
118	0xbd67d771	-0.056601945
119	0xbd12237d	-0.035678376
120	0xbe224c0e	-0.15849325
121	0xbcff5dc4	-0.03117264
122	0x3c8d9faf	0.017288057
123	0xbe151be0	-0.14561415
124	0xbd8288df	-0.06373762
125	0xbd3ee41b	-0.046604257
126	0xbcc88df3	-0.02448175
127	0xbd96bb92	-0.07359995
128	0xbd260511	-0.040532175
129	0x3db8288c	0.08992109
130	0x3d903cd5	0.07042853
131	0xbe6abb92	-0.22923115
132	0xbd48b67f	-0.049002167
133	0xbd3a9d22	-0.04556001
134	0x3d7c5b41	0.061610464
135	0xbd986562	-0.07441212
136	0xbe3162d8	-0.17322862
137	0x3d620f34	0.05519028
138	0xbcd1be1e	-0.02560335
139	0x3d0faee6	0.035078906
140	0xbd2aee41	-0.041731123
141	0x3d2ac5c2	0.041692503
142	0xbe6ddc86	-0.23228654
143	0x3ddebb8e	0.10875617
144	0xbdff9aa2	-0.12480666
145	0xbe4958b7	-0.19662748
146	0x39f353b6	0.0004641094
147	0xbe16e41e	-0.14735457
148	0x3e1febbb	0.15617268
149	0x3cf5dc84	0.030012377
150	0x3d8d771e	0.069074854
151	0x3cf0cac6	0.029393565
152	0xbe3316d1	-0.17489173
153	0xbe097720	-0.13424349
154	0x3debf5df	0.115215056
155	0xbd267ebe	-0.040648215
156	0x3d0bb908	0.034112006
157	0x3d9367ec	0.07197556
158	0xbd4288e3	-0.047493827
159	0xbe4320f1	-0.19055535
160	0xbd4cac58	-0.049969047
161	0x3d87720f	0.06613552
162	0xbd926051	-0.07147277
163	0xbd23f5d9	-0.04002938
164	0xbe4ff5e1	-0.20308639
165	0xbc81958f	-0.015818385
166	0xbe86f355	-0.26357523
167	0xbdc9446e	-0.09827505
168	0xbda0df0f	-0.07855045
169	0xbd2bb908	-0.041924506
170	0xbd866a71	-0.06563271
171	0xbde60514	-0.11231437
172	0x3cd079ae	0.025448646
173	0x3c2c5b33	0.01051979
174	0x3afd7708	0.0019337842
175	0xbd3a2378	-0.045443982
176	0xbcf9a9d1	-0.030476483
177	0xbd28df0a	-0.04122833
178	0xbc9ebb91	-0.019376548
179	0xbe1cfd78	-0.15331066
180	0x3d31958d	0.043355513
181	0xbdb5771c	-0.08860609
182	0xbe2f907b	-0.17144959
183	0x3e1fd777	0.15609537
184	0xbcec0a24	-0.02881343
185	0x3e469d2b	0.19395892
186	0xbc911be3	-0.017713493
187	0xbdfd11ba	-0.12356897
188	0xbe853537	-0.26017162
189	0xbd5d4e94	-0.054030016
190	0xbaf35411	-0.0018564482
191	0xbddb53a4	-0.107093126
192	0xbe3f3f5c	-0.18676513
193	0xbcaf353e	-0.021387693
194	0xbcb3028b	-0.021851799
195	0xbdb6f865	-0.08934096
196	0x3cd7720f	0.026299505
197	0xbe5a749b	-0.21333544
198	0xbe0fc32a	-0.14039293
199	0xbe75a9d3	-0.23990564
200	0xbcf4e930	-0.029896349
201	0x3e158b64	0.14603955
202	0xbe43b909	-0.19113554
203	0xbcbd7720	-0.023128092
204	0x3ce237c2	0.027614478
205	0xbddb9078	-0.107209146
206	0xbe137c31	-0.14402844
207	0xbd346f85	-0.044051666
208	0x3bdf0cad	0.006806931
209	0xbdb8f354	-0.09030786
210	0x3ce60514	0.028078593
211	0xbd5df0c9	-0.05418471
212	0xbe7a88dd	-0.24466272
213	0x3da30288	0.07959467
214	0xbe681446	-0.22663984
215	0xbce3cd41	-0.027807834
216	0xbd86a748	-0.06574875
217	0xbde079a7	-0.10960703
218	0xbcb5dc82	-0.022199873
219	0xbd8316d1	-0.06400836
220	0x3d818145	0.06323484
221	0xbe7079ad	-0.23483916
222	0x3dc41e6a	0.095761135
223	0x3cbfaee2	0.02339882
224	0xbe0ed9fd	-0.13950343
225	0x3d5f3534	0.054494098
226	0xbe07b907	-0.13254176
227	0x3e2d9faf	0.16955446
228	0x3cc32b0f	0.023824243
229	0xbe257721	-0.16158725
230	0xbd032b1d	-0.032023538
231	0x3b958b67	0.004563737
232	0xbbe41e75	-0.0069616386
233	0xbcdc32b2	-0.026879642
234	0xbc4df0cc	-0.0125696175
235	0xbd5cd4ea	-0.05391399
236	0x3e261956	0.16220602
237	0x3bbb9074	0.0057240073
238	0x3db879ac	0.09007582
239	0xbd81d260	-0.06338954
240	0xbe6c5b44	-0.2308169
241	0xbe1d9faf	-0.15392946
242	0x3cce41e5	0.025177905
243	0xbcd0cac5	-0.025487313
244	0xbe7720f5	-0.24133666
245	0xbd6a749a	-0.057240106
246	0x3d1ac5b4	0.0377862
247	0xbdb69302	-0.08914758
248	0xbc0288e0	-0.007967204
249	0xbc446f86	-0.01198948
250	0x3cd58b68	0.02606745
251	0xbdedb3f8	-0.11606592
252	0x3d42d9f6	0.047571145
253	0xbe124c0b	-0.1428682
254	0xbe1d8b66	-0.15385208
255	0x3d3f3539	0.046681616

fc2.bias f4 [84]
0	0x3ea8cfd8	0.32971072
1	0x3ea58659	0.32329062
2	0x3e68f354	0.22749072
3	0x3efa9815	0.48944154
4	0x3dd33f5c	0.10314819
5	0x3ec2d4ed	0.38053074
6	0x3d77ebb6	0.060527526
7	0x3d58b67e	0.052908413
8	0xbc9faeeb	-0.019492587
9	0x3ee9a4c0	0.45633507
10	0xbe0b7c31	-0.13621594
11	0xbbad9fb7	-0.0052985805
12	0x3eec41ea	0.46144038
13	0x3ef9ebb9	0.48812655
14	0xbd99be19	-0.075069614
15	0x3e6cfd79	0.23143567
16	0x3ef283cf	0.47366187
17	0x3ef81448	0.48452973
18	0x3efa6561	0.4890547
19	0x3efba9d1	0.49152997
20	0xbdeac5b3	-0.114634894
21	0x3ef2ac5b	0.47397122
22	0x3ef6f353	0.48232517
23	0xbd10288b	-0.035194915
24	0x3ea441e9	0.32081535
25	0x3e6dbe18	0.23217046
26	0x3e918656	0.28422803
27	0x3e732b18	0.23746908
28	0x3ef6ac5e	0.4817838
29	0x3e2ccac4	0.16874224
30	0xbdb0f358	-0.08640164
31	0x3ef6c5b1	0.48197702
32	0x3ef7c83e	0.4839496
33	0x3e74511d	0.23859067
34	0xbd89d25b	-0.06729575
35	0x3edf8b65	0.43661037
36	0x3ef86f83	0.48522577
37	0x3eaba4c3	0.3352414
38	0x3d9ef868	0.077622235
39	0x3ef5cd50	0.48008204
40	0xbbc98141	-0.0061494415
41	0x3efbc32c	0.49172342
42	0x3ef74e94	0.48302138
43	0x3efb0289	0.49025372
44	0x3e95497e	0.29157633
45	0x3ef3353a	0.47501546
46	0x3ed53a4d	0.41646042
47	0x3ca9d261	0.0207302
48	0xbe8d3027	-0.275758
49	0x3d4f8656	0.050665222
50	0x3efa0a23	0.4883586
51	0x3efc37ca	0.49261314
52	0x3d90b685	0.07066063
53	0x3ea33a4e	0.3188042
54	0xbcf446f9	-0.029818999
55	0xbdbf20f6	-0.09332459
56	0x3ee288e3	0.4424506
57	0x3eda79aa	0.42670947
58	0x3e5a1957	0.21298729
59	0xbe829814	-0.2550665
60	0x3ee39a9e	0.444539
61	0x3ee6bb8f	0.4506497
62	0x3efc4c0c	0.4927677
63	0x3efac0a2	0.48975092
64	0x3e9bf5dd	0.30461016
65	0xbe242890	-0.16031098
66	0x3e1a2d9e	0.15056464
67	0x3eee88df	0.465888
68	0xbe44a236	-0.19202504
69	0x3e8c562d	0.27409497
70	0x3e897721	0.268487
71	0xbe9bdc87	-0.30441687
72	0x3d79faec	0.061030313
73	0xbd0f8654	-0.035040215
74	0x3dfa2373	0.12213793
75	0x3ed488e0	0.41510677
76	0x3e13aee1	0.1442218
77	0xbe19be1d	-0.15013929
78	0x3efb3a49	0.49067906
79	0x3ef66561	0.4812422
80	0x3ef77c36	0.48336953
81	0x3ef40f32	0.47667843
82	0x3ef93a4f	0.48677298
83	0x3a181445	0.000580136

fc3.weight f4 [10, 84]
0	0x3dde9306	0.10867886
1	0xbdcb67f1	-0.099319346
2	0x3d1d9faf	0.038482364
3	0x3cd720f3	0.026260829
4	0x3e297720	0.16549349
5	0xbe5bcd4e	-0.21465036
6	0xbd07c32b	-0.03314511
7	0x3d105115	0.035233576
8	0xbd932b1a	-0.07185955
9	0xbdec9815	-0.11552445
10	0xbe288dee	-0.16460392
11	0x3d9cc0a2	0.07653929
12	0x3d7511bc	0.059831366
13	0x3cfd7723	0.030940598
14	0xbdd432af	-0.1036123
15	0x3e89cd4e	0.26914448
16	0x3dab2b16	0.08357827
17	0x3cdcd4e7	0.026956988
18	0xbdf6cfd4	-0.12051359
19	0xbdacc0a1	-0.084351785
20	0x3e1b3f61	0.15160896
21	0xbd4bb904	-0.04973699
22	0xbe0c0a24	-0.13675743
23	0x394ac5ae	0.00019337863
24	0x3ca0a23b	0.019608608
25	0xbd8b16d1	-0.06791461
26	0xbe6a9d26	-0.2291151
27	0x3c5faee4	0.013652537
28	0xbdcb3f5f	-0.099241965
29	0x3d6cd4ea	0.05782024
30	0x3d411be1	0.047145728
31	0xbdbcd4ea	-0.09220298
32	0x3e098147	0.13428222
33	0x3e1d8143	0.1538134
34	0xbe3f8654	-0.18703586
35	0x3ca511bb	0.020150056
36	0xbde958b9	-0.11393876
37	0x3c2b16d2	0.0104424525
38	0xbe561958	-0.20908105
39	0x3e1d446f	0.15358137
40	0x3d66562e	0.05623453
41	0x3d377210	0.044786513
42	0x3d74c0a5	0.059754033
43	0xbdadc83f	-0.084854595
44	0x3b88df0b	0.0041769794
45	0xbe38f358	-0.18061578
46	0xbe86c0a4	-0.26318848
47	0x3e9d9a9c	0.3078202
48	0x3e01a9d3	0.12662439
49	0xbdb69303	-0.08914759
50	0x3d0faee0	0.035078883
51	0x3ec0e934	0.3767792
52	0x3d67ebb7	0.05662128
53	0x3dbb3f5e	0.09142946
54	0xbd5353a4	-0.051593438
55	0x3c953a4e	0.018216278
56	0xbdf39077	-0.11892789
57	0xbb8cac62	-0.0042930106
58	0x3dfd9fb5	0.12383977
59	0x3d7958b0	0.060875595
60	0xbe252602	-0.1612778
61	0x3defc329	0.11707146
62	0x3be7ebbc	0.0070776623
63	0x3dc93027	0.098236375
64	0xbd81958b	-0.06327351
65	0xbc0c0a1b	-0.008547331
66	0x3c97c32d	0.018525684
67	0x3c85b3f8	0.016321167
68	0x3d03028c	0.03198485
69	0xbd91d260	-0.07120204
70	0x3e1ed9f9	0.15512837
71	0x3e2c0a24	0.16800743
72	0x3d25b3f2	0.040454812
73	0x3e194472	0.14967516
74	0x3dc9079c	0.098159045
75	0xbd5ac5ae	-0.05341118
76	0xbe0cd4ea	-0.13753095
77	0x3e962da1	0.29331687
78	0x3e2b028b	0.16700189
79	0xbda2c5b5	-0.07947866
80	0xbdb4fd7b	-0.0883741
81	0x3d09d25c	0.03364788
82	0x3dc24c0c	0.09487161
83	0xbd2c0a21	-0.042001847
84	0x3e1e41ec	0.15454835
85	0xbd7353a4	-0.059405938
86	0xbc2d9fac	-0.010597151
87	0xbc3cd4e9	-0.011525371
88	0x3dd5f0cb	0.10446318
89	0xbe279a9b	-0.16367571
90	0x3d16a749	0.03678063
91	0x3d141e68	0.03616181
92	0xbd49079b	-0.04907952
93	0xbc8e41e9	-0.017365413
94	0xbd12604e	-0.035736375
95	0xbd311be2	-0.04323948
96	0xbdb7aee5	-0.08968905
97	0xbe1353a4	-0.14387375
98	0xbe03cd4c	-0.12871283
99	0x3e953f5e	0.29149908
100	0xbd690799	-0.05689201
101	0xbd8562dd	-0.06512997
102	0xbdc2237f	-0.094794266
103	0xbe185b3d	-0.14878555
104	0xbe0558b8	-0.13022125
105	0xbd865630	-0.06559408
106	0xbe37cd50	-0.17949414
107	0x3db446f9	0.088025995
108	0xbc9cd4e8	-0.01914449
109	0xbd7bb906	-0.06145575
110	0xbd5b907a	-0.05360458
111	0x3d016cfc	0.031598076
112	0xbdb2ee42	-0.0873685
113	0x3c14e932	0.009088801
114	0x3d181447	0.037128713
115	0xbe466a78	-0.19376552
116	0x3d70288a	0.05863241
117	0x3e841449	0.25796726
118	0xbddd62dd	-0.10809872
119	0xbcae9303	-0.021310335
120	0xbd62b16c	-0.055344984
121	0x3d05b3f5	0.032642324
122	0xbe8b2608	-0.27177453
123	0x3e4a7496	0.19771037
124	0x3cbaee42	0.022818688
125	0x3e20511d	0.15655942
126	0x3d962da0	0.07332921
127	0xbd8c83d1	-0.068610795
128	0xbdae41e7	-0.085086636
129	0xbddba4c1	-0.10724784
130	0xbe3353a3	-0.17512374
131	0x3e1e88db	0.15481894
132	0x3d05b3f7	0.03264233
133	0xbd7b907e	-0.061417095
134	0x3ca98144	0.020691521
135	0x3ece0510	0.40238237
136	0x3cddc83f	0.027073024
137	0x3d960513	0.073251866
138	0x3ab16cde	0.0013536473
139	0x3da2c5b3	0.079478644
140	0xbe451be1	-0.19248916
141	0x3e281447	0.16413985
142	0x3d16a74a	0.036780633
143	0x3de08df3	0.10964575
144	0xbe00d4e8	-0.12581217
145	0xbda8df0a	-0.08245666
146	0xbdf2b16e	-0.11850248
147	0x3d41446d	0.047184397
148	0xbc9a4c0a	-0.018835086
149	0x3dd08df2	0.10183324
150	0x3daa37c3	0.08311417
151	0xbe178659	-0.14797343
152	0xbddb3f5f	-0.107054465
153	0xbdc32b17	-0.09529703
154	0x3eb05b43	0.34444627
155	0x3e5fe19a	0.21863404
156	0x3d2e1959	0.042504642
157	0x3db20f37	0.08694308
158	0xbab16d09	-0.0013536523
159	0xbe51be17	-0.2048267
160	0xbd30cac9	-0.04316214
161	0x3e348def	0.17632268
162	0x3debcd47	0.11513763
163	0xbca3cd4a	-0.01999535
164	0xbdd483d0	-0.10376704
165	0xbe8a1e69	-0.26976326
166	0x3e2ddc82	0.16978648
167	0x3c0ac5b7	0.00846999
168	0x3e5a2da2	0.2130647
169	0xbd911be5	-0.070853986
170	0xbd0ebb90	-0.034846842
171	0x3b432b19	0.0029780327
172	0x3cc0288b	0.023456832
173	0xbe3be6ab	-0.18349712
174	0x3d4ac5b3	0.049504947
175	0x3d26f86a	0.04076425
176	0xbdc3d76f	-0.09562575
177	0xbddd8144	-0.10815671
178	0xbe0b2b17	-0.13590656
179	0x3d066a76	0.032816373
180	0xbc13a4c2	-0.009011449
181	0xbc8cfd75	-0.017210701
182	0xbdb432b4	-0.08798733
183	0x3e5a1449	0.212968
184	0x3e32b16c	0.17450494
185	0x3e1e2381	0.15443231
186	0x3d0fc32a	0.035098232
187	0x3deabb90	0.11461556
188	0x3e187ec0	0.14892101
189	0xbdd80a24	-0.10548809
190	0xbdf34982	-0.11879255
191	0xbd43028c	-0.04760985
192	0x3e04b67f	0.12960242
193	0xbd02d9fb	-0.031946164
194	0xbe4cbb92	-0.19993427
195	0xbd93a4c1	-0.07209159
196	0xbe47fffc	-0.19531244
197	0x3df05b42	0.11736156
198	0x3cbd771e	0.023128089
199	0xbc27ebba	-0.010249073
200	0x3e42b16d	0.19012995
201	0x3d68a234	0.056795314
202	0xbd6c83cc	-0.05774288
203	0x3db0288d	0.086014844
204	0xbdddb3f7	-0.10825341
205	0x3c44c0a7	0.0120088225
206	0xbe1cb67e	-0.1530399
207	0x3dd8e92f	0.10591351
208	0xbd524c0c	-0.051342055
209	0xbbcac5b2	-0.006188118
210	0x3db3f5de	0.0878713
211	0xbd7e6a73	-0.062113237
212	0xbcecac5a	-0.028890777
213	0x3c33a4c3	0.010964575
214	0xbe5d62d9	-0.21619739
215	0x3e5116d7	0.20418869
216	0x3cb3cd4f	0.021948485
217	0xbde9958d	-0.11405478
218	0x3e2b8656	0.16750464
219	0x3e280a21	0.16410114
220	0x3e349304	0.17634207
221	0x3cd30288	0.025758043
222	0xbc0562d8	-0.008141242
223	0x3d2b2b18	0.041789144
224	0xbd61958b	-0.055074256
225	0x3c8ebb90	0.017423421
226	0x3d100002	0.035156257
227	0x3e22562d	0.15853186
228	0xbe2ae41d	-0.16688581
229	0x3db0b680	0.08628559
230	0xbdb2b16b	-0.08725246
231	0x3d63f5d9	0.05565438
232	0xbe2b3f5f	-0.16723393
233	0xbd578652	-0.052618332
234	0x3bd11be0	0.006381497
235	0xbb75dc85	-0.0037515473
236	0x3c01958c	0.00790919
237	0xbdd20f38	-0.10256809
238	0x3dd832b2	0.10556544
239	0x3dc81e6e	0.09771429
240	0x3d8d079c	0.06886217
241	0x3e2c6f89	0.16839422
242	0xbc13028d	-0.008972776
243	0x3c083cd4	0.008315284
244	0xbe1ad4ea	-0.15120283
245	0x3e3e749d	0.18599172
246	0x3dfe6053	0.12420716
247	0x3e244c0b	0.16044633
248	0xbdf21955	-0.11821238
249	0x3e0b2b16	0.13590655
250	0x3db3353e	0.087503895
251	0x3dc81e68	0.097714245
252	0x3e52cac6	0.20585164
253	0x3d0511bb	0.032487612
254	0xbdb30cad	-0.08742652
255	0xbcd3a4c5	-0.025835404

fc3.bias f4 [10]
0	0xbe30f352	-0.1728032
1	0xbf9716d1	-1.1803838
2	0xbdef3539	-0.11680073
3	0x3f5320f4	0.8247216
4	0x3ea432af	0.3206992
5	0x3e367eba	0.1782178
6	0xbe73e196	-0.23816523
7	0xbe6367e9	-0.22207607
8	0xbe59a9d2	-0.21256188
9	0xbee62da4	-0.44956696
