model/minionn_maxpool_swalp_net.pth (torch_old, 837973 bytes, 44 tensors)

conv1.weight f4 [64, 3, 3, 3]
000000 40 ee 36 3e 94 4e 5d bd ed d4 9c 3c bd 11 95 3d
       0.17864323 -0.054030016 0.0191445 0.07278774
000010 b9 eb 07 bd eb fa 5d be 66 f8 3e be 65 65 da be
       -0.033183787 -0.21677749 -0.18649444 -0.42655483
000020 23 be ed be 70 1e 84 bd 98 07 19 3d 46 ee a2 bd
       -0.46434125 -0.06451118 0.037360758 -0.07955603
000030 44 ee 12 3e 74 6a b2 3e d2 cf de 3d 28 9d 98 3e
       0.14348704 0.34846842 0.10879482 0.298074
000040 26 0a 48 3e 5a 19 3e bc 3d c8 03 bf de 62 4d be
       0.19535121 -0.011602724 -0.51477414 -0.20057246
000050 6b 44 01 bd 47 14 08 3e 3a 35 d5 3e 06 93 3a be
       -0.03155939 0.13288985 0.4164217 -0.18220147
000060 f0 8d 80 3d f3 8d b4 3e a4 53 23 3d b6 32 5c bc
       0.062770724 0.3526455 0.039874688 -0.013439825
000070 2f c3 5f bd bb 7e a8 bd 42 60 b2 bb 21 52 73 38
       -0.0546295 -0.08227297 -0.0054436037 5.8012203e-05
000080 38 a2 44 bd 04 26 31 bd 26 0a 5c 3c 40 5b 68 bd
       -0.048006266 -0.043249145 0.013430154 -0.056727648
000090 b9 eb 6b 3d e7 41 d6 3c 32 7c 63 3b cd 83 cc 3d
       0.05759785 0.026154472 0.0034711477 0.099860765
0000a0 cb f0 cf 3d b9 c5 1a 3d 64 3f 4f 3d 06 93 7e 3d
       0.101533495 0.03778622 0.050597563 0.06215193
0000b0 0b 4c ca 3c be eb 07 3d 6a 8b 29 3d bf a4 03 bc
       0.024694463 0.033183806 0.04139272 -0.008034884
0000c0 6e 44 41 3c 89 95 01 3d d9 62 e5 bc 3a 35 33 bd
       0.0117961 0.03163675 -0.028001236 -0.043751933
0000d0 1f 77 bd bb a6 e6 81 bd c2 37 05 be ba eb cf bd
       -0.0057820226 -0.06342821 -0.13009551 -0.10152383
0000e0 65 d2 c9 bd 20 e4 8e bb 00 6d 99 bc 4e a7 06 bd
       -0.09854583 -0.0043606907 -0.018728733 -0.032874398
0000f0 ed d4 1c 3d c7 ca 8c 3d b0 eb b9 3d 72 6a 1e bc
       0.038289 0.06874614 0.09078157 -0.009668933
000100 00 6d 5d bd 71 6a 2e bd 6b b1 22 3d 21 e4 56 3d
       -0.05405903 -0.04258198 0.03971998 0.052463654
000110 e9 41 1e 3d 7a 23 46 3d a4 e6 ed 3d 2b 56 94 3d
       0.038637076 0.048373677 0.11616257 0.07242998
000120 45 81 f9 bc c3 ca 90 bc 12 05 2a bd f8 b3 85 3d
       -0.030457148 -0.01767481 -0.04150874 0.06528467
000130 a4 c0 38 3d df f5 89 3d 54 8b 95 3a 76 fd 2c 3d
       0.04510559 0.06736349 0.0011409321 0.042233907
000140 6b 8b 35 3d 5f d2 27 3e 0a b9 29 3e f0 fa dd bd
       0.044322412 0.16388844 0.16574493 -0.10838878
000150 d8 3c 72 3e 41 c8 ed 3d eb fa 2f be a0 9a af 3d
       0.23656023 0.11610461 -0.17185561 0.08574414
000160 58 f3 10 3d 62 8b 25 3d 33 7c 57 be a0 53 41 be
       0.03538832 0.04041613 -0.21043472 -0.18879557
000170 6b b1 04 be 40 c8 29 be 81 6f 20 be a9 79 d8 bd
       -0.12958305 -0.16580296 -0.15667535 -0.1057008
000180 12 05 d2 bd 10 df 58 bd 43 ee 7a 3d 0e 05 86 3c
       -0.10254873 -0.052947104 0.06126238 0.016359832
000190 38 35 97 3d 93 4e 85 3d ad 32 fc 3b a2 2d e6 3c
       0.073831975 0.065091275 0.0076964707 0.028097931
0001a0 8f bb 2e 3d aa 0c 1f 3c 07 b9 5b 3d 9c 9a 67 3c
       0.04265934 0.009707609 0.053643253 0.014135983
0001b0 b5 c5 c6 3d 8f bb 16 3d 36 a2 60 bc 21 77 45 3e
       0.097056784 0.036799964 -0.013710549 0.19283725
0001c0 8f 4e a1 3d 57 86 17 3d ab 9f f9 3d ac 0c bb bd
       0.07876312 0.03699335 0.121886574 -0.09133276
0001d0 19 be c9 bd 72 d7 8f 3d 83 49 47 bc df 88 ce bd
       -0.098507114 0.07023515 -0.012163523 -0.100847
0001e0 b1 9f 0f 3e 5d d2 f9 bc 61 19 8e 3c c3 37 d2 3c
       0.14025761 -0.030495817 0.017346086 0.025661355
0001f0 b6 c5 3a be 0f df e8 bc 5f d2 f1 3d 3d c8 5d 3b
       -0.18239483 -0.028426675 0.11807703 0.0033841275
000200 7a 90 db bd 60 65 80 3d 3b c8 5d bc ae 0c 83 3d
       -0.10720916 0.06269336 -0.013536508 0.06398903
000210 f0 b3 e5 bc a6 e6 17 be a3 53 b3 bc d0 a9 05 3f
       -0.028039902 -0.14834079 -0.021890467 0.5221224
000220 61 d2 1b 3f e8 fa 59 3e 3e 5b 3c 3e 97 07 89 bd
       0.6086789 0.2128712 0.18394181 -0.06690901
000230 e7 ae 9f bd 7b b6 18 3d 05 93 30 bf f7 46 1a bf
       -0.07797032 0.037283402 -0.68974334 -0.60264534
000240 75 d7 67 be 94 55 73 39 3e 5b 2c 3b b0 9f 89 3e
       -0.22640784 0.00023206166 0.0026299502 0.26879644
000250 d4 cf d6 bc f7 20 3f be 33 0f 82 3e 44 14 78 be
       -0.026222147 -0.18664919 0.2540222 -0.2422648
000260 9b 74 92 be a6 53 2f bf 26 30 a9 3c 2a 30 e9 bc
       -0.28604588 -0.6848701 0.020652842 -0.02846535
000270 9e 2d 36 be 91 74 aa 3c c2 a4 f3 3d 60 1e e4 3c
       -0.17790839 0.020807536 0.118966594 0.027846515
000280 63 d2 89 3e c8 f0 31 3f 81 b6 24 bd ce 16 91 bd
       0.26918325 0.6950803 -0.04021311 -0.07084428
000290 89 95 91 bd 74 fd 1c bc b2 58 19 3c 0f df 3c bd
       -0.071086 -0.009581912 0.0093595255 -0.046111163
0002a0 7d b6 88 bc 6d 1e d2 bd f3 20 87 bd 35 7c 8b 3c
       -0.01668858 -0.102597095 -0.065980814 0.017027
0002b0 cb eb 67 bb 7f b6 d4 bd 32 0f 9c 3d 63 65 64 3d
       -0.0035388346 -0.10386371 0.07620086 0.055760752
0002c0 91 bb 8e bc f0 8d 74 3d 8e 28 60 bc 3d 5b cc 3b
       -0.017423423 0.059705675 -0.013681544 0.0062364624
0002d0 8e 95 c3 3d a9 79 ae 3d 65 1e 54 3c 84 02 ff 3d
       0.0955001 0.085192986 0.0129467 0.12451652
0002e0 71 d7 d1 3d 6e b1 46 3d 19 be a9 3c 1a be 41 3d
       0.1024617 0.048509054 0.020720528 0.047300436
0002f0 a1 c0 8c 3d de 62 f1 bc 07 b9 1b bc db 62 1e bd
       0.068726785 -0.029466089 -0.009504563 -0.038668495
000300 15 98 00 bd 0c b9 93 bb 27 0a 6c bc 97 95 21 ba
       -0.031395037 -0.0045081433 -0.014406717 -0.0006163953
000310 68 1e 88 bc 91 bb 62 3c 66 d7 ef 3a 2a c3 91 3c
       -0.016616061 0.013838665 0.0018298447 0.017793257
000320 fc d9 9c bc de 62 51 3c d5 3c e8 bb 8e bb 2e 3b
       -0.019146912 0.012779919 -0.00708733 0.0026662084
000330 94 4e ad 3b 00 00 e0 3b 58 19 fe ba 5e 19 04 3d
       0.0052889083 0.0068359375 -0.0019386215 0.032250755
000340 c5 ca 31 3d c7 ca 28 bc 24 77 c9 3c dd 1b b3 3c
       0.043406267 -0.010302252 0.024592943 0.021863872
000350 3c c8 bd bb 5f d2 09 bb 33 a2 4c 3c ca 83 ec bb
       -0.005791692 -0.0021029932 0.012489843 -0.007217859
000360 0f df 78 3d a3 2d 46 3d ca 5d 9f bc 99 74 02 3e
       0.0607596 0.048383366 -0.019453902 0.12739791
000370 b3 32 92 3e d7 3c 68 3e a9 9f 2d 3c 6c b1 52 3e
       0.28554305 0.22679459 0.010597148 0.20575494
000380 57 f3 20 3d c5 37 16 be 82 dc 0d be b4 c5 90 be
       0.039294567 -0.14669712 -0.13853648 -0.28275836
000390 1b e4 2e be 9c 9a c1 be 66 f8 80 be 33 a2 60 be
       -0.17079203 -0.3781327 -0.25189513 -0.21936874
0003a0 ca ca c2 be b4 9f 05 be 8b 02 17 3e 12 72 ef 3d
       -0.3804534 -0.13049203 0.14747064 0.11691679
0003b0 61 65 90 3d 68 8b d5 3c be eb 8d 3e 3b 5b 58 3e
       0.070505865 0.02606745 0.2771892 0.21128552
0003c0 ba 58 29 3e a2 e6 41 3e 6b 1e 44 3d ec 67 c1 bd
       0.16537753 0.18935636 0.04788057 -0.0944365
0003d0 27 30 93 bd 71 6a 4a bd 8a 95 e7 bd 54 f3 e0 bc
       -0.07186919 -0.049417917 -0.11307819 -0.027459778
0003e0 2d 35 3f bc a6 e6 1d bd eb d4 9c 3d c4 ca 10 bc
       -0.011670393 -0.03855004 0.076577984 -0.008837406
0003f0 f7 20 77 bc b3 c5 6a bd 38 a2 80 3d 56 86 4b bd
       -0.015083543 -0.057317447 0.06280941 -0.04968866

conv1.bias f4 [64]
000000 c9 5d 37 3e f5 20 27 be de 88 96 be ad 79 08 be
       0.1790687 -0.16321166 -0.29401296 -0.13327666
000010 65 8b 35 be 43 ee 7a 3c 4b 60 22 be 4d cd c3 bd
       -0.17728956 0.015315595 -0.15857045 -0.095606424
000020 a9 e6 51 be 5e 3f 4b be 98 07 c9 be f6 b3 ed be
       -0.20498146 -0.19848391 -0.39263606 -0.46426362
000030 d0 16 41 bf 2c 56 36 be 11 05 e6 3d ca f0 ed bd
       -0.75425434 -0.1780631 0.11231435 -0.116181925
000040 be eb f7 3e ba 7e d6 bd 76 6a 82 be 6f 6a 26 bf
       0.48422045 -0.1047339 -0.25471848 -0.65006155
000050 43 81 29 be e3 ae 7f bd ed d4 2c 3e 2b c3 9f 3e
       -0.16553216 -0.062422644 0.168781 0.3120359
000060 21 77 05 3f 79 23 aa 3d 79 fd bc bd 8a 28 dc be
       0.521349 0.08307547 -0.092280336 -0.4299968
000070 ed d4 fc bd d4 a9 c9 bd b4 c5 00 bf 96 bb 9e 3d
       -0.123453 -0.09846845 -0.5030167 0.07750623
000080 f4 67 c3 be 00 00 20 bd a7 53 9b 3e b8 58 99 bc
       -0.38165247 -0.0390625 0.3033726 -0.018719062
000090 1c 51 68 be 40 5b 34 be 53 60 52 be 69 8b 69 bf
       -0.22687191 -0.17612934 -0.20544557 -0.9122835
0000a0 01 da 42 bd ba eb ff 3e 39 35 b3 be 1f e4 9e 3e
       -0.047571186 0.49984533 -0.35001543 0.31033418
0000b0 ec fa e9 bd 59 3f 07 bf 77 fd 94 3e d5 a9 99 bd
       -0.11424813 -0.52831036 0.29099628 -0.07503096
0000c0 01 00 c0 bc 6b 8b 65 3e 96 e1 1d bf df 1b 03 bf
       -0.023437502 0.22416465 -0.6167234 -0.512144
0000d0 7e dc f5 bc c2 ca d8 be 3b 35 4f bd 69 1e 44 3e
       -0.030012365 -0.42342192 -0.050587874 0.19152226
0000e0 d0 83 6c be 2a 7c 7b be fa 46 b0 be 5f 3f 19 bf
       -0.23097157 -0.24559084 -0.3442915 -0.5986232
0000f0 c1 a4 53 bc 53 60 3a bf d7 cf a2 3e 24 9d 92 be
       -0.012917698 -0.7280323 0.31799194 -0.28635514

norm1.weight f4 [64]
000000 00 00 80 3f 00 00 80 3f 00 00 80 3f 00 00 80 3f
       1.0 1.0 1.0 1.0
000010 00 00 80 3f 00 00 80 3f 00 00 80 3f 00 00 80 3f
       1.0 1.0 1.0 1.0
000020 00 00 80 3f 00 00 80 3f 00 00 80 3f 00 00 80 3f
       1.0 1.0 1.0 1.0
000030 00 00 80 3f 00 00 80 3f 00 00 80 3f 00 00 80 3f
       1.0 1.0 1.0 1.0
000040 00 00 80 3f 00 00 80 3f 00 00 80 3f 00 00 80 3f
       1.0 1.0 1.0 1.0
000050 00 00 80 3f 00 00 80 3f 00 00 80 3f 00 00 80 3f
       1.0 1.0 1.0 1.0
000060 00 00 80 3f 00 00 80 3f 00 00 80 3f 00 00 80 3f
       1.0 1.0 1.0 1.0
000070 00 00 80 3f 00 00 80 3f 00 00 80 3f 00 00 80 3f
       1.0 1.0 1.0 1.0
000080 00 00 80 3f 00 00 80 3f 00 00 80 3f 00 00 80 3f
       1.0 1.0 1.0 1.0
000090 00 00 80 3f 00 00 80 3f 00 00 80 3f 00 00 80 3f
       1.0 1.0 1.0 1.0
0000a0 00 00 80 3f 00 00 80 3f 00 00 80 3f 00 00 80 3f
       1.0 1.0 1.0 1.0
0000b0 00 00 80 3f 00 00 80 3f 00 00 80 3f 00 00 80 3f
       1.0 1.0 1.0 1.0
0000c0 00 00 80 3f 00 00 80 3f 00 00 80 3f 00 00 80 3f
       1.0 1.0 1.0 1.0
0000d0 00 00 80 3f 00 00 80 3f 00 00 80 3f 00 00 80 3f
       1.0 1.0 1.0 1.0
0000e0 00 00 80 3f 00 00 80 3f 00 00 80 3f 00 00 80 3f
       1.0 1.0 1.0 1.0
0000f0 00 00 80 3f 00 00 80 3f 00 00 80 3f 00 00 80 3f
       1.0 1.0 1.0 1.0

norm1.bias f4 [64]
000000 00 00 00 00 00 00 00 00 00 00 00 00 00 00 00 00
       0.0 0.0 0.0 0.0
000010 00 00 00 00 00 00 00 00 00 00 00 00 00 00 00 00
       0.0 0.0 0.0 0.0
000020 00 00 00 00 00 00 00 00 00 00 00 00 00 00 00 00
       0.0 0.0 0.0 0.0
000030 00 00 00 00 00 00 00 00 00 00 00 00 00 00 00 00
       0.0 0.0 0.0 0.0
000040 00 00 00 00 00 00 00 00 00 00 00 00 00 00 00 00
       0.0 0.0 0.0 0.0
000050 00 00 00 00 00 00 00 00 00 00 00 00 00 00 00 00
       0.0 0.0 0.0 0.0
000060 00 00 00 00 00 00 00 00 00 00 00 00 00 00 00 00
       0.0 0.0 0.0 0.0
000070 00 00 00 00 00 00 00 00 00 00 00 00 00 00 00 00
       0.0 0.0 0.0 0.0
000080 00 00 00 00 00 00 00 00 00 00 00 00 00 00 00 00
       0.0 0.0 0.0 0.0
000090 00 00 00 00 00 00 00 00 00 00 00 00 00 00 00 00
       0.0 0.0 0.0 0.0
0000a0 00 00 00 00 00 00 00 00 00 00 00 00 00 00 00 00
       0.0 0.0 0.0 0.0
0000b0 00 00 00 00 00 00 00 00 00 00 00 00 00 00 00 00
       0.0 0.0 0.0 0.0
0000c0 00 00 00 00 00 00 00 00 00 00 00 00 00 00 00 00
       0.0 0.0 0.0 0.0
0000d0 00 00 00 00 00 00 00 00 00 00 00 00 00 00 00 00
       0.0 0.0 0.0 0.0
0000e0 00 00 00 00 00 00 00 00 00 00 00 00 00 00 00 00
       0.0 0.0 0.0 0.0
0000f0 00 00 00 00 00 00 00 00 00 00 00 00 00 00 00 00
       0.0 0.0 0.0 0.0

norm1.running_mean f4 [64]
000000 00 00 00 00 00 00 00 00 00 00 00 00 00 00 00 00
       0.0 0.0 0.0 0.0
000010 00 00 00 00 00 00 00 00 00 00 00 00 00 00 00 00
       0.0 0.0 0.0 0.0
000020 00 00 00 00 00 00 00 00 00 00 00 00 00 00 00 00
       0.0 0.0 0.0 0.0
000030 00 00 00 00 00 00 00 00 00 00 00 00 00 00 00 00
       0.0 0.0 0.0 0.0
000040 00 00 00 00 00 00 00 00 00 00 00 00 00 00 00 00
       0.0 0.0 0.0 0.0
000050 00 00 00 00 00 00 00 00 00 00 00 00 00 00 00 00
       0.0 0.0 0.0 0.0
000060 00 00 00 00 00 00 00 00 00 00 00 00 00 00 00 00
       0.0 0.0 0.0 0.0
000070 00 00 00 00 00 00 00 00 00 00 00 00 00 00 00 00
       0.0 0.0 0.0 0.0
000080 00 00 00 00 00 00 00 00 00 00 00 00 00 00 00 00
       0.0 0.0 0.0 0.0
000090 00 00 00 00 00 00 00 00 00 00 00 00 00 00 00 00
       0.0 0.0 0.0 0.0
0000a0 00 00 00 00 00 00 00 00 00 00 00 00 00 00 00 00
       0.0 0.0 0.0 0.0
0000b0 00 00 00 00 00 00 00 00 00 00 00 00 00 00 00 00
       0.0 0.0 0.0 0.0
0000c0 00 00 00 00 00 00 00 00 00 00 00 00 00 00 00 00
       0.0 0.0 0.0 0.0
0000d0 00 00 00 00 00 00 00 00 00 00 00 00 00 00 00 00
       0.0 0.0 0.0 0.0
0000e0 00 00 00 00 00 00 00 00 00 00 00 00 00 00 00 00
       0.0 0.0 0.0 0.0
0000f0 00 00 00 00 00 00 00 00 00 00 00 00 00 00 00 00
       0.0 0.0 0.0 0.0

norm1.running_var f4 [64]
000000 00 00 80 3f 00 00 80 3f 00 00 80 3f 00 00 80 3f
       1.0 1.0 1.0 1.0
000010 00 00 80 3f 00 00 80 3f 00 00 80 3f 00 00 80 3f
       1.0 1.0 1.0 1.0
000020 00 00 80 3f 00 00 80 3f 00 00 80 3f 00 00 80 3f
       1.0 1.0 1.0 1.0
000030 00 00 80 3f 00 00 80 3f 00 00 80 3f 00 00 80 3f
       1.0 1.0 1.0 1.0
000040 00 00 80 3f 00 00 80 3f 00 00 80 3f 00 00 80 3f
       1.0 1.0 1.0 1.0
000050 00 00 80 3f 00 00 80 3f 00 00 80 3f 00 00 80 3f
       1.0 1.0 1.0 1.0
000060 00 00 80 3f 00 00 80 3f 00 00 80 3f 00 00 80 3f
       1.0 1.0 1.0 1.0
000070 00 00 80 3f 00 00 80 3f 00 00 80 3f 00 00 80 3f
       1.0 1.0 1.0 1.0
000080 00 00 80 3f 00 00 80 3f 00 00 80 3f 00 00 80 3f
       1.0 1.0 1.0 1.0
000090 00 00 80 3f 00 00 80 3f 00 00 80 3f 00 00 80 3f
       1.0 1.0 1.0 1.0
0000a0 00 00 80 3f 00 00 80 3f 00 00 80 3f 00 00 80 3f
       1.0 1.0 1.0 1.0
0000b0 00 00 80 3f 00 00 80 3f 00 00 80 3f 00 00 80 3f
       1.0 1.0 1.0 1.0
0000c0 00 00 80 3f 00 00 80 3f 00 00 80 3f 00 00 80 3f
       1.0 1.0 1.0 1.0
0000d0 00 00 80 3f 00 00 80 3f 00 00 80 3f 00 00 80 3f
       1.0 1.0 1.0 1.0
0000e0 00 00 80 3f 00 00 80 3f 00 00 80 3f 00 00 80 3f
       1.0 1.0 1.0 1.0
0000f0 00 00 80 3f 00 00 80 3f 00 00 80 3f 00 00 80 3f
       1.0 1.0 1.0 1.0

conv2.weight f4 [64, 64, 3, 3]
000000 a8 c0 d4 3c 9c 9a 87 bb 58 19 1e 3c c6 a4 4b 3d
       0.025970772 -0.004138304 0.009649597 0.049717687
000010 2b 56 04 3e 42 a7 a6 3c ee fa 0b be e0 1b c5 bd
       0.12923495 0.020343427 -0.13669941 -0.09624457
000020 4a a7 a6 bd 0c 72 97 3b e5 d4 fc 3b 7c b6 38 bc
       -0.081373766 0.0046217497 0.0077158087 -0.011273976
000030 83 dc 85 bc f6 b3 c5 ba a5 53 b3 bc 7b 90 db 3c
       -0.0163405 -0.001508354 -0.02189047 0.026802292
000040 9b 9a c7 bb 82 49 27 bb ac e6 c1 bb 2b 56 06 bd
       -0.0060914285 -0.0025525992 -0.005917391 -0.03279702
000050 1c 51 40 bc c3 a4 43 bd cd f0 45 bd 50 60 9a bd
       -0.011738088 -0.04776455 -0.04832535 -0.075379014
000060 29 9d 9a 3c 33 0f a2 bc a0 c0 24 3b ed 67 8b bc
       0.018873768 -0.019782638 0.0025139228 -0.01701733
000070 66 65 b8 3b b5 c5 4a bb c2 a4 a3 bc 54 f3 40 3c
       0.005627322 -0.0030940596 -0.019976024 0.011776764
000080 58 86 6f bc ef 20 bf bd e2 88 22 3d 47 14 b8 bc
       -0.014619432 -0.093324535 0.039681323 -0.022470606
000090 c8 5d 3f 3b 80 dc b5 bb 80 6f 84 bb 25 0a cc 3b
       0.0029200185 -0.0055499673 -0.004041612 0.0062267953
0000a0 50 cd 93 3c cc 83 3c 3d a6 e6 81 bb a1 c0 54 bd
       0.018042237 0.04602413 -0.003964263 -0.051941518
0000b0 5a 19 56 bd 61 3f 8f 3d 12 b9 ab bb 6c 1e 24 bc
       -0.05227027 0.069945104 -0.005240568 -0.010017019
0000c0 f6 92 ce bb 51 cd 23 bd bd 11 ed 3d 28 0a 24 bd
       -0.00630414 -0.039990727 0.11575649 -0.04004875
0000d0 c1 a4 0b bd 81 b6 d0 bd e4 ae 37 3d 1a be 21 3d
       -0.03409267 -0.1019106 0.044844523 0.039487936
0000e0 97 74 02 3d be a4 7b 3d b1 58 a9 bc 78 44 01 bb
       0.03184947 0.061436407 -0.020672174 -0.0019724648
0000f0 3c c8 fd 3c 0f df 18 bd 1b be 59 bd d1 83 7c 3c
       0.030979268 -0.0373221 -0.053159814 0.015412287
000100 f5 b3 95 bc 96 53 73 b9 71 44 81 3b 9e 2d 16 3c
       -0.018274287 -0.00023205424 0.0039449264 0.009166149
000110 50 60 c2 3c 2d e9 94 3b 84 6f d4 3c 7f 44 81 ba
       0.023727566 0.0045443983 0.025932081 -0.0009862332
000120 9d 2d e6 bc d5 cf 06 3d af 32 8c bd 62 65 18 bd
       -0.028097922 0.032913048 -0.06845605 -0.03720606
000130 23 77 ad 3c 45 14 28 bd 0b b9 43 bd 88 95 99 bd
       0.021174973 -0.041034956 -0.047783893 -0.07499224
000140 34 0f 02 bd fe b3 45 ba 01 93 0e bc a8 79 40 bd
       -0.03175278 -0.00075417745 -0.008702041 -0.04699102
000150 2f 56 0e bd 69 1e c4 bc 53 f3 00 3d ea d4 fc bb
       -0.03475016 -0.023940282 0.031482052 -0.007715811
000160 1b 2b a3 bc 1e 51 a0 3b 7b fd 7c 3d 02 00 08 3d
       -0.019918015 0.0048924824 0.061765175 0.033203132
000170 80 b6 c4 3d 55 86 3f bd 20 77 dd 3d a8 79 48 3d
       0.096051216 -0.04675897 0.10813737 0.048944145
000180 bf 11 05 3d fd d9 62 bc 86 6f c0 bd 58 3f 3b bd
       0.032487627 -0.013845918 -0.093962714 -0.045714706
000190 e5 1b 91 bc 6c 1e 44 3c a6 53 17 be 6a 8b 0d be
       -0.017713496 0.011970144 -0.14778003 -0.13822713
0001a0 b0 9f 8d bd 1e e4 8e bc 70 b1 32 bd d9 a9 b9 bb
       -0.069152236 -0.01744276 -0.04362625 -0.0056659994
0001b0 74 6a 8e 3d d6 3c 68 bc 3d 7c 73 3d 04 b9 cb bc
       0.06953898 -0.014174661 0.059444655 -0.024868496
0001c0 74 6a 2e bd 33 7c 53 3d cc 16 5b bd 33 7c 4b bd
       -0.04258199 0.051632117 -0.053488538 -0.049678992
0001d0 08 26 05 bd f2 46 d4 bb 02 93 4e 3c 7e 49 a7 3a
       -0.032506973 -0.006478184 0.012608292 0.0012762991
0001e0 3d e9 d4 ba a4 53 f3 3a 1f 51 48 3d 2f c3 c7 bc
       -0.0016243827 0.0018564356 0.048905488 -0.024385063
0001f0 02 4c 5a 3c 33 7c a3 bc 86 dc a5 bd 8e 02 93 bb
       0.013323786 -0.019956684 -0.08098702 -0.0044863885
000200 01 00 58 3d ce a9 91 3d 92 bb 14 3e 65 f8 4e 3d
       0.05273438 0.07112466 0.14524677 0.050529856
000210 20 0a cc bb 04 93 1e be 20 e4 b2 bd 7b 23 da 3c
       -0.006226793 -0.1548577 -0.08734918 0.026628247
000220 65 65 88 3c 3a a2 e0 3c a6 e6 01 3c f6 46 94 bb
       0.016649911 0.027421106 0.007928526 -0.0045250608
000230 2d e9 94 bb 00 93 de 3c 90 28 90 bc 77 fd ec bb
       -0.0045443983 0.027169704 -0.017597467 -0.007232364
000240 11 2b 23 3c 50 cd 35 3e 66 f8 c6 3c 1d e4 52 be
       0.009958998 0.17754102 0.024288367 -0.20594831
000250 0a b9 67 be c1 11 d5 bd 0e 4c 20 3e 83 dc 49 3e
       -0.2262918 -0.10403777 0.15654013 0.19713025
000260 a4 e6 e5 3d c6 ca d0 bc cf 3c c8 ba 16 72 77 bc
       0.11225632 -0.025487315 -0.0015276911 -0.015102884
000270 80 b6 88 bc 50 cd 63 bc a8 79 50 bc 12 72 d7 ba
       -0.016688585 -0.013903931 -0.012724318 -0.0016437194
000280 75 6a 8e bc 14 2b 03 3c 7a fd 7c bd 91 9a 07 bb
       -0.017384747 0.008005876 -0.06176517 -0.0020691494
000290 72 44 61 bc 0f 72 97 bc ff de 08 ba cc 83 5c bc
       -0.013749229 -0.018487005 -0.0005221217 -0.013459157
0002a0 62 3f 3b bd d3 a9 39 bc 9a 07 e9 3c 79 90 1b 3c
       -0.045714743 -0.011331993 0.028446008 0.009494894
0002b0 6f 44 81 bc 80 49 e7 3b 2c 2b 43 bb 68 44 c1 3b
       -0.015779702 0.0070583224 -0.002978037 0.0058980472
0002c0 b2 58 19 bb a6 79 b0 bc 4f cd c3 3c 10 72 57 bd
       -0.0023398814 -0.021542381 0.02390161 -0.052599013
0002d0 60 f3 e0 bb e1 f5 33 bb 6f b1 02 3d 00 26 ed bc
       -0.00686495 -0.0027459788 0.031907495 -0.028948784
0002e0 2b c3 b7 bc 84 6f a4 bc 7a fd 6c bc 47 ee ea 3c
       -0.02243193 -0.020072706 -0.01446473 0.028678073
0002f0 70 49 27 3a f3 20 b7 bb b2 9f 0d 3c d4 c4 ca 38
       0.00063814875 -0.0055886446 0.008644031 9.668773e-05
000300 15 98 84 3c 98 e1 db bb 02 54 f3 38 c6 ca b0 3b
       0.0161858 -0.0067102425 0.000116027906 0.005395266
000310 b5 c5 0a bc bb 7e 56 3c d0 f0 4d 3e 3d c8 4d 3e
       -0.008469989 0.013091738 0.20111394 0.20095916
000320 1b be 09 3e 41 35 cf bd 32 e9 b8 bd 6e b1 8a bd
       0.13451426 -0.10117579 -0.090288535 -0.06772123
000330 4e cd e7 bd 94 4e 01 be 41 5b 04 be c7 37 e2 bd
       -0.11318456 -0.12627631 -0.12925436 -0.11045795
000340 63 8b 15 3c 8d 95 21 bc e0 88 82 3b 3f 5b d4 bd
       0.009127471 -0.009862316 0.003983602 -0.10368966
000350 c6 ca 30 3c aa 9f 91 3d 84 6f ac 3d 35 0f aa 3d
       0.010790532 0.07110532 0.084197074 0.08303682
000360 37 35 bf 3c 32 19 be ba d3 a9 81 bd 08 b9 db 3c
       0.023340805 -0.0014503358 -0.063312195 0.026821628
000370 90 bb c6 3d a1 c0 d8 3d 4e 3a 0d be fb d9 83 be
       0.097037435 0.10583616 -0.13791773 -0.25752243
000380 7c 23 4c be fe ff 1f 3c 82 dc 85 bd 85 dc 1d 3d
       -0.19935411 0.009765623 -0.06536199 0.038540382
000390 16 2b 63 3c dc cf 96 bb 3b c8 dd 3b 32 7c 03 3c
       0.013865253 -0.0046024155 0.006768254 0.008025216
0003a0 8a 49 27 ba a2 9a 2f bd 0b df 50 3d 8f bb 8e bc
       -0.00063815026 -0.04287208 0.05099396 -0.01742342
0003b0 db f5 63 3d 1d be 11 3c 8b 28 78 3d 97 bb fe 3b
       0.055654388 0.008895424 0.06058554 0.0077738273
0003c0 af 32 4c bd b1 9f b9 bd 6f 44 3d be 79 dc f5 bc
       -0.049853023 -0.09063662 -0.18483137 -0.030012356
0003d0 28 30 99 3c 87 6f 84 3d 8c 95 71 3d 67 65 38 bc
       0.01869972 0.06466585 0.05898051 -0.011254645
0003e0 cc a4 53 3c c6 f0 0d 3b 34 60 d2 3a 66 8b 55 bd
       0.012917709 0.0021658405 0.0016050399 -0.052134894
0003f0 ec f5 b3 3a bd 7e 36 bb af 32 ac 3c 08 05 26 bb
       0.0013729907 -0.0027846538 0.021020262 -0.0025332589

conv2.bias f4 [64]
000000 73 44 c1 bd 93 4e cd 3d 00 00 00 00 00 00 00 00
       -0.09436884 0.100247525 0.0 0.0
000010 b7 58 39 3d 52 60 c2 3d f0 8d 20 3e 78 90 5b 3d
       0.04525062 0.09491028 0.15679145 0.053604573
000020 e8 1b 91 bc ba 7e 36 bd ff 6c 21 be ce f0 33 3f
       -0.017713502 -0.04455445 -0.15764235 0.70289314
000030 0c df 20 3e 4b 3a 85 3d aa 79 ac 3e 32 56 d6 3d
       0.15710086 0.06505259 0.33686572 0.10465659
000040 4b 3a 35 3d eb 67 9b be 5c 3f 8b bd 00 da 52 3f
       0.044245046 -0.3035272 -0.06799194 0.8236389
000050 00 00 00 00 04 b9 3b 3e 04 93 de 3d 48 3a b5 3d
       0.0 0.18332297 0.10867885 0.08849007
000060 00 00 00 00 00 00 00 00 64 f8 f6 3d cd 83 24 be
       0.0 0.0 0.120590955 -0.16065903
000070 2b c3 8f 3e 61 65 e8 3d df 1b 01 be 01 26 9d 3d
       0.2807859 0.113474615 -0.12608288 0.07673264
000080 4f cd 03 3d 05 b9 23 be 22 9d 1a bc 9c 9a 87 bc
       0.03217822 -0.15988548 -0.009436877 -0.016553216
000090 be 7e 36 3d 04 b9 c7 be d4 3c 40 3e 0a 26 9d bb
       0.044554465 -0.39008343 0.18773204 -0.0047957944
0000a0 bd 11 8d be b4 37 a2 3a 7f 23 da 3d 00 00 00 00
       -0.27552596 0.001237622 0.106513016 0.0
0000b0 07 93 ce bc a6 e6 b1 bd 8d 28 b0 3c 68 8b 55 be
       -0.025216592 -0.08686571 0.021503711 -0.2085396
0000c0 b3 9f 6d be c9 83 cc bd 7b 23 2a 3d 4f a7 e6 3c
       -0.23205452 -0.099860735 0.041537743 0.02815595
0000d0 b8 11 05 3c 26 9d 9a 3d 00 00 00 00 77 fd 80 be
       0.0081219 0.07549505 0.0 -0.25193378
0000e0 34 7c c3 bd e9 d4 5c be c9 a4 33 bd b6 eb 17 be
       -0.09545174 -0.21565594 -0.043858323 -0.1483601
0000f0 f8 46 94 3c 0e 4c aa bd 14 b4 c5 bb 00 00 00 00
       0.018100247 -0.083152875 -0.00603343 0.0

norm2.weight f4 [64]
000000 00 00 80 3f 00 00 80 3f 00 00 80 3f 00 00 80 3f
       1.0 1.0 1.0 1.0
000010 00 00 80 3f 00 00 80 3f 00 00 80 3f 00 00 80 3f
       1.0 1.0 1.0 1.0
000020 00 00 80 3f 00 00 80 3f 00 00 80 3f 00 00 80 3f
       1.0 1.0 1.0 1.0
000030 00 00 80 3f 00 00 80 3f 00 00 80 3f 00 00 80 3f
       1.0 1.0 1.0 1.0
000040 00 00 80 3f 00 00 80 3f 00 00 80 3f 00 00 80 3f
       1.0 1.0 1.0 1.0
000050 00 00 80 3f 00 00 80 3f 00 00 80 3f 00 00 80 3f
       1.0 1.0 1.0 1.0
000060 00 00 80 3f 00 00 80 3f 00 00 80 3f 00 00 80 3f
       1.0 1.0 1.0 1.0
000070 00 00 80 3f 00 00 80 3f 00 00 80 3f 00 00 80 3f
       1.0 1.0 1.0 1.0
000080 00 00 80 3f 00 00 80 3f 00 00 80 3f 00 00 80 3f
       1.0 1.0 1.0 1.0
000090 00 00 80 3f 00 00 80 3f 00 00 80 3f 00 00 80 3f
       1.0 1.0 1.0 1.0
0000a0 00 00 80 3f 00 00 80 3f 00 00 80 3f 00 00 80 3f
       1.0 1.0 1.0 1.0
0000b0 00 00 80 3f 00 00 80 3f 00 00 80 3f 00 00 80 3f
       1.0 1.0 1.0 1.0
0000c0 00 00 80 3f 00 00 80 3f 00 00 80 3f 00 00 80 3f
       1.0 1.0 1.0 1.0
0000d0 00 00 80 3f 00 00 80 3f 00 00 80 3f 00 00 80 3f
       1.0 1.0 1.0 1.0
0000e0 00 00 80 3f 00 00 80 3f 00 00 80 3f 00 00 80 3f
       1.0 1.0 1.0 1.0
0000f0 00 00 80 3f 00 00 80 3f 00 00 80 3f 00 00 80 3f
       1.0 1.0 1.0 1.0

norm2.bias f4 [64]
000000 00 00 00 00 00 00 00 00 00 00 00 00 00 00 00 00
       0.0 0.0 0.0 0.0
000010 00 00 00 00 00 00 00 00 00 00 00 00 00 00 00 00
       0.0 0.0 0.0 0.0
000020 00 00 00 00 00 00 00 00 00 00 00 00 00 00 00 00
       0.0 0.0 0.0 0.0
000030 00 00 00 00 00 00 00 00 00 00 00 00 00 00 00 00
       0.0 0.0 0.0 0.0
000040 00 00 00 00 00 00 00 00 00 00 00 00 00 00 00 00
       0.0 0.0 0.0 0.0
000050 00 00 00 00 00 00 00 00 00 00 00 00 00 00 00 00
       0.0 0.0 0.0 0.0
000060 00 00 00 00 00 00 00 00 00 00 00 00 00 00 00 00
       0.0 0.0 0.0 0.0
000070 00 00 00 00 00 00 00 00 00 00 00 00 00 00 00 00
       0.0 0.0 0.0 0.0
000080 00 00 00 00 00 00 00 00 00 00 00 00 00 00 00 00
       0.0 0.0 0.0 0.0
000090 00 00 00 00 00 00 00 00 00 00 00 00 00 00 00 00
       0.0 0.0 0.0 0.0
0000a0 00 00 00 00 00 00 00 00 00 00 00 00 00 00 00 00
       0.0 0.0 0.0 0.0
0000b0 00 00 00 00 00 00 00 00 00 00 00 00 00 00 00 00
       0.0 0.0 0.0 0.0
0000c0 00 00 00 00 00 00 00 00 00 00 00 00 00 00 00 00
       0.0 0.0 0.0 0.0
0000d0 00 00 00 00 00 00 00 00 00 00 00 00 00 00 00 00
       0.0 0.0 0.0 0.0
0000e0 00 00 00 00 00 00 00 00 00 00 00 00 00 00 00 00
       0.0 0.0 0.0 0.0
0000f0 00 00 00 00 00 00 00 00 00 00 00 00 00 00 00 00
       0.0 0.0 0.0 0.0

norm2.running_mean f4 [64]
000000 00 00 00 00 00 00 00 00 00 00 00 00 00 00 00 00
       0.0 0.0 0.0 0.0
000010 00 00 00 00 00 00 00 00 00 00 00 00 00 00 00 00
       0.0 0.0 0.0 0.0
000020 00 00 00 00 00 00 00 00 00 00 00 00 00 00 00 00
       0.0 0.0 0.0 0.0
000030 00 00 00 00 00 00 00 00 00 00 00 00 00 00 00 00
       0.0 0.0 0.0 0.0
000040 00 00 00 00 00 00 00 00 00 00 00 00 00 00 00 00
       0.0 0.0 0.0 0.0
000050 00 00 00 00 00 00 00 00 00 00 00 00 00 00 00 00
       0.0 0.0 0.0 0.0
000060 00 00 00 00 00 00 00 00 00 00 00 00 00 00 00 00
       0.0 0.0 0.0 0.0
000070 00 00 00 00 00 00 00 00 00 00 00 00 00 00 00 00
       0.0 0.0 0.0 0.0
000080 00 00 00 00 00 00 00 00 00 00 00 00 00 00 00 00
       0.0 0.0 0.0 0.0
000090 00 00 00 00 00 00 00 00 00 00 00 00 00 00 00 00
       0.0 0.0 0.0 0.0
0000a0 00 00 00 00 00 00 00 00 00 00 00 00 00 00 00 00
       0.0 0.0 0.0 0.0
0000b0 00 00 00 00 00 00 00 00 00 00 00 00 00 00 00 00
       0.0 0.0 0.0 0.0
0000c0 00 00 00 00 00 00 00 00 00 00 00 00 00 00 00 00
       0.0 0.0 0.0 0.0
0000d0 00 00 00 00 00 00 00 00 00 00 00 00 00 00 00 00
       0.0 0.0 0.0 0.0
0000e0 00 00 00 00 00 00 00 00 00 00 00 00 00 00 00 00
       0.0 0.0 0.0 0.0
0000f0 00 00 00 00 00 00 00 00 00 00 00 00 00 00 00 00
       0.0 0.0 0.0 0.0

norm2.running_var f4 [64]
000000 00 00 80 3f 00 00 80 3f 00 00 80 3f 00 00 80 3f
       1.0 1.0 1.0 1.0
000010 00 00 80 3f 00 00 80 3f 00 00 80 3f 00 00 80 3f
       1.0 1.0 1.0 1.0
000020 00 00 80 3f 00 00 80 3f 00 00 80 3f 00 00 80 3f
       1.0 1.0 1.0 1.0
000030 00 00 80 3f 00 00 80 3f 00 00 80 3f 00 00 80 3f
       1.0 1.0 1.0 1.0
000040 00 00 80 3f 00 00 80 3f 00 00 80 3f 00 00 80 3f
       1.0 1.0 1.0 1.0
000050 00 00 80 3f 00 00 80 3f 00 00 80 3f 00 00 80 3f
       1.0 1.0 1.0 1.0
000060 00 00 80 3f 00 00 80 3f 00 00 80 3f 00 00 80 3f
       1.0 1.0 1.0 1.0
000070 00 00 80 3f 00 00 80 3f 00 00 80 3f 00 00 80 3f
       1.0 1.0 1.0 1.0
000080 00 00 80 3f 00 00 80 3f 00 00 80 3f 00 00 80 3f
       1.0 1.0 1.0 1.0
000090 00 00 80 3f 00 00 80 3f 00 00 80 3f 00 00 80 3f
       1.0 1.0 1.0 1.0
0000a0 00 00 80 3f 00 00 80 3f 00 00 80 3f 00 00 80 3f
       1.0 1.0 1.0 1.0
0000b0 00 00 80 3f 00 00 80 3f 00 00 80 3f 00 00 80 3f
       1.0 1.0 1.0 1.0
0000c0 00 00 80 3f 00 00 80 3f 00 00 80 3f 00 00 80 3f
       1.0 1.0 1.0 1.0
0000d0 00 00 80 3f 00 00 80 3f 00 00 80 3f 00 00 80 3f
       1.0 1.0 1.0 1.0
0000e0 00 00 80 3f 00 00 80 3f 00 00 80 3f 00 00 80 3f
       1.0 1.0 1.0 1.0
0000f0 00 00 80 3f 00 00 80 3f 00 00 80 3f 00 00 80 3f
       1.0 1.0 1.0 1.0

conv3.weight f4 [64, 64, 3, 3]
000000 29 c3 27 bd 52 60 a2 3c 14 05 5e bd 3d 35 5f bd
       -0.040957604 0.01982132 -0.05420406 -0.05449413
000010 2b 30 03 be 58 60 0a be b6 c5 5a bd ce a9 05 be
       -0.12811343 -0.13513315 -0.053411208 -0.13053057
000020 dc f5 33 bd 9e 2d d6 3d 3e ee 96 3d e7 d4 94 3d
       -0.04393564 0.104579195 0.0736966 0.072671704
000030 7b 90 97 3d 5a 19 10 3e 6c 8b 15 3b bf eb a7 3b
       0.07400604 0.14072171 0.0022818698 0.0051245387
000040 43 ee 8a 3c fc 46 b8 bd 00 00 00 00 00 00 00 00
       0.016959315 -0.08997914 0.0 0.0
000050 00 00 00 00 00 00 00 00 00 00 00 00 00 00 00 00
       0.0 0.0 0.0 0.0
000060 00 00 00 00 00 00 00 00 00 00 00 00 00 00 00 00
       0.0 0.0 0.0 0.0
000070 00 00 00 00 00 00 00 00 00 00 00 00 00 00 00 00
       0.0 0.0 0.0 0.0
000080 00 00 00 00 00 00 00 00 00 00 00 00 00 00 00 00
       0.0 0.0 0.0 0.0
000090 a8 79 00 3d f0 fa 59 3c 24 77 dd 3d 0a 4c c2 bd
       0.03136602 0.013304457 0.1081374 -0.094871596
0000a0 af 9f 5d 3d 98 74 a6 3d 8b 95 61 bc ad 0c 23 3e
       0.054107364 0.08127707 -0.013768564 0.15922804
0000b0 ab 79 ac 3d 85 49 cb bd 04 b9 21 be 36 5b ac ba
       0.08421644 -0.09926132 -0.15793234 -0.0013149742
0000c0 c9 f0 d1 bd 01 00 20 bc 64 f8 d2 3d bf 11 a1 bd
       -0.10251004 -0.009765626 0.10301283 -0.07864713
0000d0 b7 58 69 3d 32 0f 6a 3d 34 77 7d ba 94 4e ad bc
       0.05696937 0.057143398 -0.0009668947 -0.021155633
0000e0 64 65 38 3c 7a fd 5c bd ac 0c eb bd 38 a2 60 3d
       0.011254642 -0.05395267 -0.11477026 0.054842204
0000f0 72 d7 b3 bd ef 8d 90 bd 99 74 ea 3b 0c b9 01 be
       -0.08781327 -0.07058322 0.007155013 -0.12668246
000100 19 2b 2b bd 46 81 89 bd d6 cf 8a bd 87 28 30 3b
       -0.041789148 -0.0671411 -0.06777923 0.0026879625
000110 99 74 8a 3c f9 d9 8e bd 5f 3f fb bc f0 8d 00 bd
       0.016901301 -0.06975169 -0.030669866 -0.031385362
000120 5f 3f 27 3e 56 19 12 3e c5 37 42 3c a8 e6 bd 3d
       0.16332768 0.14267477 0.011854117 0.0927251
000130 e7 41 2e 3c a9 79 10 bc ce 37 62 3c 42 ee ca bc
       0.0106358295 -0.008818069 0.01380725 -0.024771813
000140 af 9f 7d bd 8c 95 89 3d 94 4e 9d bc 66 65 60 3d
       -0.061919864 0.06717977 -0.019202508 0.0547842
000150 65 f8 86 bc f7 6c 51 bc 9f c0 d4 3c f5 b3 c5 bc
       -0.016475866 -0.012782327 0.025970755 -0.024133662
000160 2b 56 16 bd 03 93 ee bc 60 65 10 bd 02 6d b1 3c
       -0.03670327 -0.029122835 -0.03525293 0.021658424
000170 77 90 ab 3c 0b 72 a7 bc 2d e9 b4 3d 45 14 b0 3d
       0.02094291 -0.020440122 0.08833537 0.08597616
000180 9c c0 24 bb 94 74 9e 3d 8c 02 43 3d 29 c3 87 bc
       -0.0025139218 0.07737079 0.04760985 -0.016572552
000190 bc 11 4d 3d cf f0 c9 3d 0c df 08 bc 7a 6a 56 3d
       0.05006574 0.09860384 -0.00835396 0.052347638
0001a0 a1 c0 44 bc 8b 95 b1 3d 08 2b c3 3a 8f bb 3e 3d
       -0.012008817 0.08671101 0.0014890144 0.04656559
0001b0 90 4e dd 3c 41 81 89 3c 39 c8 9d 3c fe 6c 09 bd
       0.027015 0.016785266 0.019260513 -0.03355121
0001c0 b8 c5 0a bc cb f0 8d 3d d0 16 ab 3c b6 58 91 3d
       -0.008469991 0.06930693 0.020884901 0.070969984
0001d0 4b f1 0d b9 d4 cf a6 3c 8b bb ba bd da f5 97 bd
       -0.00013536696 0.020362772 -0.09117802 -0.07419939
0001e0 bc c5 4a bc f5 b3 85 bd ce 16 bf 3d 5d 19 ee bc
       -0.012376245 -0.06528465 0.093305215 -0.029064829
0001f0 21 e4 2e bd 82 49 07 3d fb 46 44 bd 55 86 6f bd
       -0.04269803 0.033029087 -0.047919255 -0.05847772
000200 6c b1 82 bc c5 37 4a bd 88 95 f1 bc b6 58 99 3c
       -0.015953742 -0.049369592 -0.029490247 0.018719058
000210 08 26 2d bd f3 8d 94 3d 25 0a 90 3d 39 e9 d4 bb
       -0.042272598 0.07253637 0.07033185 -0.006497529
000220 9e 9a ef bd d5 a9 59 3c 47 81 99 bd 57 19 8e 3c
       -0.11699413 0.01328512 -0.07495361 0.017346067
000230 4a 14 18 3c 83 23 8a 3b 9e 2d 1e 3d fa d9 aa 3d
       0.009282181 0.004215659 0.038617723 0.08342357
000240 d3 16 d7 bd 88 95 71 bd 51 60 42 3d 31 7c 53 bd
       -0.105024 -0.058980495 0.047455136 -0.05163211
000250 4c a7 2e bd 4b a7 a6 3d 07 b9 83 bd ac 0c 0f 3d
       -0.042640015 0.08137377 -0.064317755 0.034924194
000260 1f 77 05 3d 4d cd 87 bd 57 ac 4c bd 24 77 5d bc
       0.032584306 -0.06630955 -0.049969044 -0.013517175
000270 6c 1e b8 bd 35 0f 62 bd 58 65 f8 bb e3 ae 83 bd
       -0.089901775 -0.055190284 -0.0075804405 -0.06429841
000280 e4 41 6e bb 0c 72 37 3d a9 e6 49 3d 4c 3a 15 bc
       -0.0036355192 0.044786498 0.04929224 -0.009108137
000290 1a 2b 9f 3d 3b 35 57 3d 66 f8 b6 3c ec fa d9 bb
       0.07771893 0.052541 0.022335242 -0.0066522267
0002a0 70 44 61 3c fe 6c c1 3c 8d 95 d9 bd 50 60 d2 3a
       0.013749227 0.023611542 -0.10624228 0.0016050432
0002b0 14 2b d3 bc 47 14 38 bc a4 53 9f 3d 9f 2d 86 3c
       -0.025777377 -0.011235303 0.07779625 0.016379176
0002c0 78 90 1b bd 01 6d e1 3c db a9 79 bb 69 f8 d6 3c
       -0.037979573 0.027517797 -0.0038095627 0.026241498
0002d0 00 00 00 00 00 00 00 00 00 00 00 00 00 00 00 00
       0.0 0.0 0.0 0.0
0002e0 00 00 00 00 00 00 00 00 00 00 00 00 00 00 00 00
       0.0 0.0 0.0 0.0
0002f0 00 00 00 00 bf 37 5a 3d a4 e6 41 3b 29 c3 5f 3d
       0.0 0.05327582 0.0029586935 0.05462948
000300 74 90 bb 3b 9c 9a 77 bd 0b b9 eb 3d 43 81 b9 bc
       0.0057240073 -0.06045018 0.115099035 -0.022644645
000310 d8 62 25 bc b1 eb 77 3d 70 b1 1a bd 20 77 91 3d
       -0.010094367 0.060527507 -0.037766874 0.071027994
000320 a0 2d 56 3c bf 11 5d bd ff 6c c1 bd cf f0 d9 bd
       0.013072401 -0.053972002 -0.094446175 -0.10641634
000330 c3 a4 c7 bd 0e 72 5f bd 0f 72 fb bd 04 93 36 3d
       -0.09748223 -0.05455213 -0.12277614 0.0445738
000340 9d 74 aa bb 2c 56 06 3b 3d 35 ff 3c 74 90 5b bc
       -0.0052018897 0.002049814 0.031153316 -0.0134011395
000350 8a 95 b1 3c c5 a4 93 bb cc ca 18 bd 56 86 4f bc
       0.021677751 -0.004505726 -0.037302777 -0.0126663055
000360 00 00 00 00 00 00 00 00 00 00 00 00 00 00 00 00
       0.0 0.0 0.0 0.0
000370 00 00 00 00 00 00 00 00 00 00 00 00 00 00 00 00
       0.0 0.0 0.0 0.0
000380 00 00 00 00 00 00 00 00 00 00 00 00 00 00 00 00
       0.0 0.0 0.0 0.0
000390 00 00 00 00 00 00 00 00 00 00 00 00 00 00 00 00
       0.0 0.0 0.0 0.0
0003a0 00 00 00 00 00 00 00 00 5f 3f 43 3d e3 ae 37 3d
       0.0 0.0 0.047667857 0.04484452
0003b0 57 86 31 3e 38 a2 88 3d c2 37 b2 3d 98 74 02 3e
       0.17336403 0.06671566 0.08702041 0.1273979
0003c0 47 14 cc 3d 90 bb be 3d 79 90 8b 3c 5f cd 83 ba
       0.09964805 0.093131185 0.017036663 -0.0010055712
0003d0 99 74 82 bd 70 44 41 bd fe ff a3 bd a3 53 23 be
       -0.063698955 -0.047184408 -0.08007811 -0.15949874
0003e0 bf 11 3d bd 6c b1 7a bd 8c 02 a3 bd 5c f8 7e 3d
       -0.046159502 -0.06120436 -0.0795947 0.062248573
0003f0 8a 95 81 3d 62 d2 c9 3c b7 58 99 bc c4 37 ae bd
       0.063273504 0.024636451 -0.01871906 -0.0850673

conv3.bias f4 [64]
000000 1e 51 5c 3e 1d 77 41 3e 96 e1 0b bd 29 30 b9 bd
       0.21515319 0.18893094 -0.034150682 -0.09042389
000010 3b c8 8d 3e 92 e1 b3 3d 47 a7 a6 3d 69 1e 54 3d
       0.27691826 0.087832585 0.08137374 0.051786814
000020 95 e1 00 3f 17 be 5d 3e 9e 07 d1 bd 59 19 8e bd
       0.5034421 0.21654545 -0.10206531 -0.069384284
000030 c5 ca 24 be a7 79 d0 bc 41 ee 12 3e df 88 12 3e
       -0.16092975 -0.025448633 0.14348699 0.14310025
000040 89 02 eb 3d 13 2b cb 3d 12 05 ee bd 9b 07 d9 3d
       0.11475093 0.09920325 -0.11622061 0.10597154
000050 3d 35 5b be 01 6d 71 bd 5b 65 7c 3e 81 49 07 be
       -0.21407028 -0.058941845 0.24648039 -0.13211633
000060 da 88 c2 3c 71 d7 07 3e 4b 3a bd 3d 2c 30 69 bc
       0.023746897 0.13265778 0.09239634 -0.0142326765
000070 0b 4c ca bd ed 8d 90 3d 4e cd 0f 3f 6b b1 2a be
       -0.09877785 0.0705832 0.56172645 -0.16669242
000080 b1 9f 95 3d 9c 2d 6a 3e 8c 02 eb 3e 0a df 80 bd
       0.07305849 0.22868961 0.4590038 -0.06292541
000090 e5 ae 23 3e e2 ae 5b 3e 03 93 a6 bd d9 cf a8 3e
       0.15984686 0.21453431 -0.08133509 0.32971075
0000a0 35 a2 10 bd dd 88 9a bd aa e6 01 3d af 32 04 be
       -0.035310943 -0.07545636 0.03171412 -0.1290996
0000b0 6d 44 b1 3d 23 9d 9a bd 85 dc a5 bd 52 60 1e be
       0.08655629 -0.07549503 -0.080987014 -0.15466431
0000c0 ee 20 37 3e 62 65 18 bd 7b fd b6 3e 4e 3a 95 3d
       0.17883655 -0.03720606 0.35740265 0.07286511
0000d0 4b 3a c5 3d cd 83 18 be e8 d4 9c bd 98 74 0a bd
       0.09630259 -0.14894028 -0.07657796 -0.0338026
0000e0 4a cd 47 3e f5 46 b0 3e 2f 56 86 3d a8 e6 61 3e
       0.19511905 0.34429136 0.06559407 0.22060645
0000f0 6e 44 c9 3e ef 8d 48 3d 3c 35 b7 bd a1 c0 8c 3d
       0.3931002 0.048963483 -0.089457005 0.068726785

norm3.weight f4 [64]
000000 00 00 80 3f 00 00 80 3f 00 00 80 3f 00 00 80 3f
       1.0 1.0 1.0 1.0
000010 00 00 80 3f 00 00 80 3f 00 00 80 3f 00 00 80 3f
       1.0 1.0 1.0 1.0
000020 00 00 80 3f 00 00 80 3f 00 00 80 3f 00 00 80 3f
       1.0 1.0 1.0 1.0
000030 00 00 80 3f 00 00 80 3f 00 00 80 3f 00 00 80 3f
       1.0 1.0 1.0 1.0
000040 00 00 80 3f 00 00 80 3f 00 00 80 3f 00 00 80 3f
       1.0 1.0 1.0 1.0
000050 00 00 80 3f 00 00 80 3f 00 00 80 3f 00 00 80 3f
       1.0 1.0 1.0 1.0
000060 00 00 80 3f 00 00 80 3f 00 00 80 3f 00 00 80 3f
       1.0 1.0 1.0 1.0
000070 00 00 80 3f 00 00 80 3f 00 00 80 3f 00 00 80 3f
       1.0 1.0 1.0 1.0
000080 00 00 80 3f 00 00 80 3f 00 00 80 3f 00 00 80 3f
       1.0 1.0 1.0 1.0
000090 00 00 80 3f 00 00 80 3f 00 00 80 3f 00 00 80 3f
       1.0 1.0 1.0 1.0
0000a0 00 00 80 3f 00 00 80 3f 00 00 80 3f 00 00 80 3f
       1.0 1.0 1.0 1.0
0000b0 00 00 80 3f 00 00 80 3f 00 00 80 3f 00 00 80 3f
       1.0 1.0 1.0 1.0
0000c0 00 00 80 3f 00 00 80 3f 00 00 80 3f 00 00 80 3f
       1.0 1.0 1.0 1.0
0000d0 00 00 80 3f 00 00 80 3f 00 00 80 3f 00 00 80 3f
       1.0 1.0 1.0 1.0
0000e0 00 00 80 3f 00 00 80 3f 00 00 80 3f 00 00 80 3f
       1.0 1.0 1.0 1.0
0000f0 00 00 80 3f 00 00 80 3f 00 00 80 3f 00 00 80 3f
       1.0 1.0 1.0 1.0

norm3.bias f4 [64]
000000 00 00 00 00 00 00 00 00 00 00 00 00 00 00 00 00
       0.0 0.0 0.0 0.0
000010 00 00 00 00 00 00 00 00 00 00 00 00 00 00 00 00
       0.0 0.0 0.0 0.0
000020 00 00 00 00 00 00 00 00 00 00 00 00 00 00 00 00
       0.0 0.0 0.0 0.0
000030 00 00 00 00 00 00 00 00 00 00 00 00 00 00 00 00
       0.0 0.0 0.0 0.0
000040 00 00 00 00 00 00 00 00 00 00 00 00 00 00 00 00
       0.0 0.0 0.0 0.0
000050 00 00 00 00 00 00 00 00 00 00 00 00 00 00 00 00
       0.0 0.0 0.0 0.0
000060 00 00 00 00 00 00 00 00 00 00 00 00 00 00 00 00
       0.0 0.0 0.0 0.0
000070 00 00 00 00 00 00 00 00 00 00 00 00 00 00 00 00
       0.0 0.0 0.0 0.0
000080 00 00 00 00 00 00 00 00 00 00 00 00 00 00 00 00
       0.0 0.0 0.0 0.0
000090 00 00 00 00 00 00 00 00 00 00 00 00 00 00 00 00
       0.0 0.0 0.0 0.0
0000a0 00 00 00 00 00 00 00 00 00 00 00 00 00 00 00 00
       0.0 0.0 0.0 0.0
0000b0 00 00 00 00 00 00 00 00 00 00 00 00 00 00 00 00
       0.0 0.0 0.0 0.0
0000c0 00 00 00 00 00 00 00 00 00 00 00 00 00 00 00 00
       0.0 0.0 0.0 0.0
0000d0 00 00 00 00 00 00 00 00 00 00 00 00 00 00 00 00
       0.0 0.0 0.0 0.0
0000e0 00 00 00 00 00 00 00 00 00 00 00 00 00 00 00 00
       0.0 0.0 0.0 0.0
0000f0 00 00 00 00 00 00 00 00 00 00 00 00 00 00 00 00
       0.0 0.0 0.0 0.0

norm3.running_mean f4 [64]
000000 00 00 00 00 00 00 00 00 00 00 00 00 00 00 00 00
       0.0 0.0 0.0 0.0
000010 00 00 00 00 00 00 00 00 00 00 00 00 00 00 00 00
       0.0 0.0 0.0 0.0
000020 00 00 00 00 00 00 00 00 00 00 00 00 00 00 00 00
       0.0 0.0 0.0 0.0
000030 00 00 00 00 00 00 00 00 00 00 00 00 00 00 00 00
       0.0 0.0 0.0 0.0
000040 00 00 00 00 00 00 00 00 00 00 00 00 00 00 00 00
       0.0 0.0 0.0 0.0
000050 00 00 00 00 00 00 00 00 00 00 00 00 00 00 00 00
       0.0 0.0 0.0 0.0
000060 00 00 00 00 00 00 00 00 00 00 00 00 00 00 00 00
       0.0 0.0 0.0 0.0
000070 00 00 00 00 00 00 00 00 00 00 00 00 00 00 00 00
       0.0 0.0 0.0 0.0
000080 00 00 00 00 00 00 00 00 00 00 00 00 00 00 00 00
       0.0 0.0 0.0 0.0
000090 00 00 00 00 00 00 00 00 00 00 00 00 00 00 00 00
       0.0 0.0 0.0 0.0
0000a0 00 00 00 00 00 00 00 00 00 00 00 00 00 00 00 00
       0.0 0.0 0.0 0.0
0000b0 00 00 00 00 00 00 00 00 00 00 00 00 00 00 00 00
       0.0 0.0 0.0 0.0
0000c0 00 00 00 00 00 00 00 00 00 00 00 00 00 00 00 00
       0.0 0.0 0.0 0.0
0000d0 00 00 00 00 00 00 00 00 00 00 00 00 00 00 00 00
       0.0 0.0 0.0 0.0
0000e0 00 00 00 00 00 00 00 00 00 00 00 00 00 00 00 00
       0.0 0.0 0.0 0.0
0000f0 00 00 00 00 00 00 00 00 00 00 00 00 00 00 00 00
       0.0 0.0 0.0 0.0

norm3.running_var f4 [64]
000000 00 00 80 3f 00 00 80 3f 00 00 80 3f 00 00 80 3f
       1.0 1.0 1.0 1.0
000010 00 00 80 3f 00 00 80 3f 00 00 80 3f 00 00 80 3f
       1.0 1.0 1.0 1.0
000020 00 00 80 3f 00 00 80 3f 00 00 80 3f 00 00 80 3f
       1.0 1.0 1.0 1.0
000030 00 00 80 3f 00 00 80 3f 00 00 80 3f 00 00 80 3f
       1.0 1.0 1.0 1.0
000040 00 00 80 3f 00 00 80 3f 00 00 80 3f 00 00 80 3f
       1.0 1.0 1.0 1.0
000050 00 00 80 3f 00 00 80 3f 00 00 80 3f 00 00 80 3f
       1.0 1.0 1.0 1.0
000060 00 00 80 3f 00 00 80 3f 00 00 80 3f 00 00 80 3f
       1.0 1.0 1.0 1.0
000070 00 00 80 3f 00 00 80 3f 00 00 80 3f 00 00 80 3f
       1.0 1.0 1.0 1.0
000080 00 00 80 3f 00 00 80 3f 00 00 80 3f 00 00 80 3f
       1.0 1.0 1.0 1.0
000090 00 00 80 3f 00 00 80 3f 00 00 80 3f 00 00 80 3f
       1.0 1.0 1.0 1.0
0000a0 00 00 80 3f 00 00 80 3f 00 00 80 3f 00 00 80 3f
       1.0 1.0 1.0 1.0
0000b0 00 00 80 3f 00 00 80 3f 00 00 80 3f 00 00 80 3f
       1.0 1.0 1.0 1.0
0000c0 00 00 80 3f 00 00 80 3f 00 00 80 3f 00 00 80 3f
       1.0 1.0 1.0 1.0
0000d0 00 00 80 3f 00 00 80 3f 00 00 80 3f 00 00 80 3f
       1.0 1.0 1.0 1.0
0000e0 00 00 80 3f 00 00 80 3f 00 00 80 3f 00 00 80 3f
       1.0 1.0 1.0 1.0
0000f0 00 00 80 3f 00 00 80 3f 00 00 80 3f 00 00 80 3f
       1.0 1.0 1.0 1.0

conv4.weight f4 [64, 64, 3, 3]
000000 b5 9f 2d bb cf 16 9b bd de 88 f6 bd 7d 49 5f bd
       -0.0026492898 -0.0757271 -0.12037824 -0.054513443
000010 e2 ae af bd cb ca 8c bd 20 51 f0 bc 47 3a 65 bd
       -0.08578278 -0.06874617 -0.029335558 -0.05596378
000020 a5 c0 a4 bc 03 b9 eb bc 6b b1 b2 bb e1 88 a2 3c
       -0.020111391 -0.028774744 -0.005453279 0.01984066
000030 04 26 65 bd 64 65 38 bd 9c 07 19 bc 16 98 d0 3d
       -0.055944458 -0.04501857 -0.009340193 0.10185258
000040 41 81 69 bd c9 ca 38 bd d2 a9 31 bd 78 fd dc 3c
       -0.05700803 -0.045115266 -0.043374844 0.026976332
000050 0f 72 1f 3d fb 46 04 bd 47 14 58 bc 99 0c df ba
       0.038927134 -0.032294255 -0.013188428 -0.0017017304
000060 82 49 5f bd bd 11 65 3c cb f0 1d bd b5 32 7c bd
       -0.054513462 0.01398128 -0.038559716 -0.061571795
000070 b2 c5 32 bd ec d4 7c bc 25 9d 7a bc ca f0 ad bc
       -0.04364557 -0.015431624 -0.015296255 -0.021232981
000080 42 a7 e6 3b 2a e9 74 3c 16 2b 23 3c fe b8 eb bb
       0.0070389817 0.014948169 0.009959003 -0.0071936836
000090 ef fa 85 bd d5 cf d6 3c 62 65 18 bc d8 3c a8 bd
       -0.065420024 0.026222149 -0.009301515 -0.0821473
0000a0 57 19 be bb a8 e6 03 3e 2b c3 6f bd c5 a4 53 3d
       -0.0058013606 0.12880957 -0.058535736 0.05167081
0000b0 d7 cf d6 bb 42 81 89 bb 6d d7 6f bc a1 c0 f4 bc
       -0.006555538 -0.004196317 -0.014638764 -0.029877009
0000c0 50 f3 b0 bc 49 3a f5 bc c6 5d 6f bd 48 81 09 be
       -0.021600395 -0.02993502 -0.05843904 -0.13428223
0000d0 cd f0 35 bd 51 f3 84 bd 88 02 53 bc c3 37 12 3d
       -0.0444191 -0.064917214 -0.0128790215 0.03569771
0000e0 7a 90 6b 3d 8b 95 d1 bc c1 37 a2 3d a0 9a 97 3c
       0.05751083 -0.025584003 0.079207905 0.018506348
0000f0 f3 8d 84 bd 2d 56 46 3c 19 be 71 bc 38 a2 a4 bd
       -0.06472387 0.012105507 -0.0147547955 -0.08038753
000100 6f b1 d2 3c db f5 4b bd a9 79 c0 3c fe ff af bc
       0.025719373 -0.049795013 0.023495512 -0.021484371
000110 e6 f5 6b 3d 21 e4 4e 3d bd 11 45 bc b1 58 a9 3c
       0.057607554 0.05051053 -0.012028155 0.020672174
000120 f0 6c b1 3b 8a 95 d1 bc 10 df b8 bd 97 e1 a7 bd
       0.0054145977 -0.025584001 -0.09026921 -0.08197325
000130 87 6f c4 bc 4e 3a 2d 3d 0f df 88 bb 57 f3 60 3d
       -0.023978962 0.04229193 -0.0041769813 0.054919567
000140 78 6a da 3d be 37 22 3a 60 3a 35 3b e6 67 63 bd
       0.106648386 0.0006188116 0.0027653202 -0.055519007
000150 78 23 fa bc da 62 05 3d 47 cd 23 bc ad 0c 9f 3c
       -0.030534491 0.032564975 -0.009997672 0.019415224
000160 c8 5d 83 bd 4d 3a e5 bd 85 dc 95 bc c4 37 52 bd
       -0.06414372 -0.111927606 -0.018293628 -0.051322713
000170 72 6a da bd 33 a2 68 bd 3f c8 13 be 0e df f0 bd
       -0.10664834 -0.05679531 -0.14431857 -0.11761294
000180 71 6a de bd 48 a7 22 be 61 3f 19 be e7 41 be bc
       -0.10860146 -0.15884125 -0.14965583 -0.023224784
000190 32 7c 43 3c cc f0 0d 3b 91 28 50 bc 60 d2 a9 3c
       0.011931466 0.0021658419 -0.012704984 0.020730197
0001a0 0b df 10 bd c1 11 1d bd b5 9f fd 3c b7 58 29 bd
       -0.03536896 -0.03834701 0.030959943 -0.04134437
0001b0 1c 51 8c bd 1b 51 c0 bd ee 20 27 bd b3 32 9c 3c
       -0.06851408 -0.0939047 -0.04080289 0.019067144
0001c0 71 44 11 bd d2 16 a7 bd a1 c0 64 bd 9b 07 19 bc
       -0.03546566 -0.081586495 -0.055847768 -0.009340192
0001d0 a0 2d d6 bc c9 16 eb 3b 1d 51 18 bd 74 d7 af 3d
       -0.026144803 0.007174347 -0.03718673 0.08586016
0001e0 aa 79 00 bd 11 05 6e bd 2d 56 aa 3d 86 6f 24 3d
       -0.031366028 -0.0581103 0.08317218 0.04014542
0001f0 9a 74 9a bc d2 16 f3 3d e9 d4 44 bd f1 8d 70 bd
       -0.018854428 0.11869587 -0.04805461 -0.058729116
000200 76 90 8b 3c 47 14 c0 bd 13 05 e6 3b de cf f6 3c
       0.017036658 -0.093788676 0.007019648 0.030128416
000210 a3 9a 77 3d d6 3c 38 3d 31 7c e3 3d d2 16 8b bd
       0.060450207 0.044979893 0.11107672 -0.06791462
000220 7e 23 c6 bd d7 a9 d9 bc f4 20 97 3c 11 98 64 3d
       -0.09674738 -0.026570244 0.01844833 0.055809084
000230 ac 0c 17 3d dd 88 8a bd f5 37 22 b9 30 56 f6 3d
       0.03687732 -0.06764386 -0.0001547037 0.12028158
000240 20 77 bd bd d9 cf f2 bd 6e b1 92 bd c2 37 86 bd
       -0.09251237 -0.1185605 -0.07162748 -0.06553604
000250 72 b1 32 3c 18 be d1 3b b2 9f 1d bd 5d 3f 5b 3c
       0.010906564 0.006400835 -0.038482375 0.013381806
000260 48 81 81 3d ce f0 b1 bd d1 16 03 be 2b 30 fd bd
       0.063234866 -0.08688508 -0.12801673 -0.12362703
000270 78 90 db 3c 74 fd 8c bc 07 93 8a bd c1 37 a2 3c
       0.026802287 -0.0172107 -0.067663245 0.019801976
000280 68 1e 44 3c fb d9 e2 bc dd cf b2 bd 98 07 19 3c
       0.01197014 -0.027691832 -0.08731053 0.009340189
000290 22 77 fd 3c a9 c5 2a 3c 8a 02 03 3d 49 81 37 3e
       0.030940596 0.010423102 0.031984843 0.17920412
0002a0 c4 a4 6b bd 05 00 80 3c 86 6f 80 3d 2e 7c 9f bd
       -0.05753018 0.01562501 0.062712714 -0.07787357
0002b0 1f 77 bd bd 69 1e a4 bd de f5 13 bd c0 11 85 bd
       -0.09251236 -0.08013613 -0.03612315 -0.06497526
0002c0 ec d4 8c bd c2 c5 ca b9 a8 e6 41 bc 37 35 9f 3c
       -0.06876549 -0.00038675783 -0.011834778 0.019434555
0002d0 46 a7 d6 bc 07 b9 a3 bd af 9f 3d bd 8a 02 f3 3d
       -0.026202809 -0.079942755 -0.046294864 0.11865719
0002e0 85 dc 05 bd 43 ee fa 3b c5 37 82 bc 2b 30 e9 ba
       -0.032681007 0.0076577975 -0.015895734 -0.0017790844
0002f0 c4 37 8e 3d 48 81 29 bc 66 65 30 bd 98 07 a9 bc
       0.0694423 -0.010345764 -0.04306545 -0.020633504
000300 ad 9f 0d 3c b4 32 34 bd 4f a7 82 3d ad 79 10 3c
       0.008644027 -0.043993667 0.06379568 0.008818072
000310 bf a4 13 3d 6a 8b 29 3e 3e 5b 7c bd 5c 3f 13 bd
       0.036045786 0.16557088 -0.061610453 -0.035949096
000320 ab 79 c0 3c a2 e6 71 bd 27 9d 62 3d 6f 1e 6c bd
       0.023495516 -0.05905784 0.055325653 -0.05764621
000330 56 ac b4 bd 22 0a 2c 3d c6 37 b2 3c 8c 6f 6c 3d
       -0.08821933 0.04200185 0.02175511 0.057723567
000340 ee 67 43 3d 58 19 06 3d 00 00 c0 bd 9f c0 c0 3d
       0.047706537 0.032739013 -0.09375 0.094117396
000350 f7 b3 0b 3e 8b 95 a1 3c d3 a9 d9 3c 83 49 bb 3d
       0.1364287 0.019724628 0.026570236 0.091448806
000360 5b 3f ab bc 3d ee fa 3c a3 c0 84 3d 6d b1 96 3d
       -0.020904234 0.030631179 0.06482055 0.0735806
000370 89 02 97 3d e7 41 de bc a9 79 28 3d 37 0f 72 3c
       0.073735304 -0.027131034 0.04113165 0.014774135
000380 7d 49 57 bd 69 8b d1 bd b1 32 04 bd b4 c5 9e bd
       -0.05256032 -0.102316685 -0.032274906 -0.07752553
000390 f4 20 09 be cd f0 15 bd 8c 95 19 bd 93 bb 00 be
       -0.13391477 -0.0366066 -0.037496135 -0.12571554
0003a0 29 c3 97 bc a6 c0 c4 3c fd ff ff bc e2 1b a1 bc
       -0.018525677 0.024017643 -0.031249994 -0.019666616
0003b0 df 88 f2 bc f5 20 4f 3d 81 49 a7 3c 86 dc 75 3b
       -0.02960628 0.05056854 0.020420792 0.0037515475
0003c0 24 9d 52 3d 39 a2 40 bd 35 e9 88 3d 0f 05 a6 3b
       0.051419392 -0.047029708 0.06685106 0.005066521
0003d0 35 0f 1a 3d f7 d9 62 bb 54 f3 00 3d 85 dc 35 3c
       0.03761216 -0.003461478 0.031482056 0.011099939
0003e0 2a c3 31 3e 68 1e 24 3d b3 c5 ca bc ed fa 39 bc
       0.17359605 0.04006806 -0.024752473 -0.011351329
0003f0 70 d7 cf bc c5 32 3c bc 84 90 fb 3b c8 ca 18 bd
       -0.025371283 -0.011486714 0.0076771397 -0.037302762

conv4.bias f4 [64]
000000 d5 a9 f1 bd a3 2d b6 bd 1c 2b 13 3d 2a c3 1b be
       -0.11799971 -0.08895423 0.035929784 -0.15211168
000010 be 11 11 3e 59 86 ef bb 58 65 f8 3d c2 a4 93 bc
       0.14166924 -0.0073097167 0.12128705 -0.018022899
000020 f1 ae 9f bb 51 3a 75 3c a0 c0 92 3e d7 a9 69 bd
       -0.0048731496 0.014967517 0.28662586 -0.057046738
000030 dc 88 06 3e 56 f3 24 be 50 cd 13 3d f4 8d 94 3e
       0.13138145 -0.1610845 0.036084473 0.29014552
000040 ea d4 9c 3e 70 1e bc bd c2 11 d3 3e 4c a7 f6 3d
       0.3063119 -0.09185493 0.41224486 0.12043628
000050 f6 b3 05 bd 33 7c fb 3d ee fa 59 3c 83 6f 84 3e
       -0.032642327 0.122795485 0.013304455 0.25866327
000060 e5 37 22 ba 77 90 9b 3c c3 a4 53 3d 7d b6 04 be
       -0.00061881385 0.018989785 0.0516708 -0.12960239
000070 0a 4c aa 3d d7 cf 4a 3e 11 2b 83 3d 34 7c 03 3d
       0.083152846 0.19805847 0.06404699 0.03210087
000080 80 23 b2 bd 44 5b 0c 3e 44 ee 86 3e dd 88 32 bd
       -0.08698177 0.1370669 0.26353657 -0.043587554
000090 03 93 7a 3e d1 a9 91 3d 6a 8b 0d 3e c0 37 f2 3d
       0.24470143 0.07112468 0.13822713 0.1182704
0000a0 b3 c5 5a bd 3c c8 dd 3d 38 0f 7e be e9 67 7b 3d
       -0.053411197 0.10829207 -0.24810493 0.061378393
0000b0 7c 90 81 3e b8 a4 13 bc a8 79 24 be a8 e6 b5 3e
       0.25305545 -0.00901144 -0.16062033 0.3552754
0000c0 4f f3 30 bd 20 e4 5a 3e fb 6c d1 3c a2 c0 00 be
       -0.043200787 0.21376085 0.025564661 -0.12573484
0000d0 47 14 c0 3d 93 4e bd bd 4c 3a a5 3e ba eb df bd
       0.093788676 -0.092435025 0.3227104 -0.10933633
0000e0 f0 b3 55 3d 40 ee aa 3e 37 a2 5c 3e 51 60 02 bd
       0.052173555 0.33384895 0.21546255 -0.031830136
0000f0 9a 53 33 3c e5 41 ee 3e 07 4c ca 3d 79 fd 1c 3e
       0.010945225 0.4653465 0.09877782 0.15331067
